Practical_ANN_projects/Heart_disease.pt (torch, 10187 bytes, 7 tensors)

0.weight f4 [16, 13]
-0.15999137 -0.5206878 -0.6115722 0.20754148 -0.28584436 0.0017451094 -0.69985074 0.40319464
0.17476083 -0.14603645 -0.24583597 0.12700738 0.5893757 -0.7062796 0.1987468 0.22068864
-0.13291472 0.0022882991 0.20829436 0.020888869 0.6116599 0.32949337 -0.04035613 0.12324804
-0.2525555 0.53221726 0.26714835 0.10070588 -0.46646252 -0.09093538 -0.37537876 0.21340686
-0.1373762 0.30627018 0.5201066 1.0965812 -0.25996697 0.05377594 -0.18178666 -0.5342901
-0.58776927 0.52187103 0.061486386 0.103861384 0.31206578 -0.38084242 -0.10446385 -0.132114
-0.20053855 -0.51332575 -0.10106185 -0.09474609 0.61377335 -0.33486244 -0.062668696 -0.08762934
0.31002286 -0.23713091 -0.045757137 0.5180176 -0.07273717 0.3332198 0.10769348 -0.71611863
-0.18360081 -0.19886772 -0.45619082 -0.038443077 0.057297774 0.15986441 -0.3576129 -0.27638927
0.18346125 -0.583459 0.50484866 -0.23017663 -0.55443406 -0.56729484 0.3491746 0.11729605
-0.02861912 -0.14006232 -0.5393306 0.40348414 -0.34226555 0.21011895 0.36582556 -0.21428639
0.0900564 -0.92755663 0.12616284 -0.7889381 -0.24602883 -0.24021369 0.735389 -0.5374025
0.2417713 0.31789047 0.14170833 -0.08026693 0.4655039 0.068627805 0.13628313 -0.12360753
-0.10439607 -0.056392066 0.64545864 0.17537098 0.396481 -0.37308818 0.419783 -0.5773907
-0.28199998 -0.10631437 0.17223592 -0.0006261123 0.08593758 0.12649737 0.51610476 -0.05373888
0.098533265 0.66181177 0.080059044 -0.53560394 -0.34589463 -0.13933 -0.036490016 -0.0052190637
0.32909247 -0.5172431 0.4685212 -0.40962005 -0.2568473 0.012782411 0.16355674 -0.6009952
0.09640802 -0.16200499 -0.3676588 0.5055274 0.29157403 0.39489734 -0.1274423 -0.18547013
0.002361578 0.04335556 0.32298097 -0.58808875 0.33497888 -0.12749274 -0.16673383 0.2941634
-0.32327005 0.4256615 -0.7168449 -0.17387027 -0.36929324 -0.053541288 0.19518723 0.04408706
-0.04574858 -0.602076 -0.44505796 -0.11131016 0.15458195 0.59829384 -0.3188794 -0.71178466
-0.6185871 -0.27031747 0.2740836 -0.2522503 0.4490872 -0.18774065 -0.22655861 0.002065887
-0.258996 -0.05800918 0.50655556 -0.38400468 0.03970695 0.73618037 -0.66231626 -0.54502606
0.09293404 0.19468394 0.19665873 0.40749258 0.43431637 0.29735345 -0.24817988 -0.059859555
0.33431983 0.43091378 0.2930394 -0.11503033 -0.1487988 -0.31239954 0.21574582 0.08472096
0.27174625 0.5108417 -0.4826268 0.13834092 0.445971 -0.024633622 -0.11041428 -0.4019656
00000000: c7d4 23be cc4b 05bf ff8f 1cbf c185 543e
00000010: 315a 92be 28bc e43a 6b29 33bf 876f ce3e
00000020: 81f4 323e 948a 15be 6dbc 7bbe 390e 023e
00000030: 53e1 163f bdce 34bf 4884 4b3e 34fc 613e
00000040: cc1a 08be 4af7 153b 1e4b 553e 221f ab3c
00000050: be95 1c3f 5bb3 a83e 784c 25bd 7869 fc3d
00000060: f44e 81be 643f 083f abc7 883e e23e ce3d
00000070: 2dd4 eebe 543c babd a531 c0be 5487 5a3e
00000080: 59ac 0cbe 72cf 9c3e b525 053f c65c 8c3f
00000090: 641a 85be 2944 5c3d 4826 3abe 3cc7 08bf
000000a0: 0c78 16bf 5799 053f 26d9 7b3d 47b5 d43d
000000b0: 16c7 9f3e c7fd c2be 25f1 d5bd e448 07be
000000c0: fa59 4dbe 5169 03bf 84f9 cebd 3d0a c2bd
000000d0: 4020 1d3f 1773 abbe 7258 80bd 0377 b3bd
000000e0: 51bb 9e3e 72d2 72be d66b 3bbd cd9c 043f
000000f0: 3af7 94bd c99b aa3e 668e dc3d 8d53 37bf
00000100: da01 3cbe fba3 4bbe d891 e9be 7d76 1dbd
00000110: 12b1 6a3d 7fb3 233e 0a19 b7be e582 8dbe
00000120: 44dd 3b3e 925d 15bf c33d 013f 6cb3 6bbe
00000130: 64ef 0dbf 3c3a 11bf 03c7 b23e e938 f03d
00000140: a572 eabc 7f6c 0fbe 9211 0abf 7995 ce3e
00000150: 6e3d afbe 6c29 573e 7d4d bb3e e46d 5bbe
00000160: 7d6f b83d 5a74 6dbf d530 013e d9f7 49bf
00000170: fbee 7bbe 94fa 75be 7442 3c3f 3693 09bf
00000180: e592 773e 8ac2 a23e fd1b 113e fd62 a4bd
00000190: 8756 ee3e bc8c 8c3d ce8d 0b3e f225 fdbd
000001a0: 9bcd d5bd 5efb 66bd c73c 253f 7394 333e
000001b0: 8fff ca3e 6a05 bfbe cced d63e e0cf 13bf
000001c0: 4d62 90be 59bb d9bd 9d5e 303e af21 24ba
000001d0: 0b00 b03d 8788 013e 711f 043f 4d1d 5cbd
000001e0: cfcb c93d 7f6c 293f fff5 a33d 571d 09bf
000001f0: 1a19 b1be 86ac 0ebe 8e76 15bd ae04 abbb
00000200: cf7e a83e 0b6a 04bf 03e2 ef3e b8b9 d1be
00000210: 7d81 83be 516d 513c 6b7b 273e d2da 19bf
00000220: 9171 c53d a3e4 25be c63d bcbe 3e6a 013f
00000230: 3149 953e fc2f ca3e 3c80 02be e2eb 3dbe
00000240: b4c4 1a3b 9a95 313d c35d a53e fc8c 16bf
00000250: 5a82 ab3e 758d 02be 46bc 2abe 969c 963e
00000260: a783 a5be 4ef0 d93e 2683 37bf 0c0b 32be
00000270: 0114 bdbe 1c4e 5bbd 29df 473e a294 343d
00000280: dd62 3bbd a721 1abf a3de e3be 95f6 e3bd
00000290: bb4a 1e3e c929 193f 2944 a3be 8537 36bf
000002a0: b95b 1ebf 0d67 8abe b054 8c3e f426 81be
000002b0: c2ee e53e 163f 40be fbfe 67be d563 073b
000002c0: 209b 84be 099b 6dbd a0ad 013f 439c c4be
000002d0: c1a3 223d 5176 3c3f 8f8d 29bf d486 0bbf
000002e0: 3454 be3d 3a5b 473e e860 493e dea2 d03e
000002f0: b75e de3e b63e 983e de22 7ebe 4b2f 75bd
00000300: f82b ab3e bba0 dc3e 4309 963e 0695 ebbd
00000310: b65e 18be d5f2 9fbe 79ec 5c3e 2f82 ad3d
00000320: 5322 8b3e 86c6 023f dc1a f7be 3ea9 0d3e
00000330: 5056 e43e 73cc c9bc e220 e2bd 6fce cdbe

0.bias f4 [16]
-0.0009411504 0.3997981 0.24835783 -0.0886721 0.10245533 -0.25243628 -0.20776719 0.27327162
-0.6863397 -0.24706994 -0.4693463 0.07484199 -0.27556393 0.29789937 -0.32153332 -0.48533767
00000000: 89b7 76ba 56b2 cc3e 8451 7e3e b899 b5bd
00000010: 1ad4 d13d 543f 81be ecc0 54be 42ea 8b3e
00000020: f5b3 2fbf e7ff 7cbe 294e f0be c246 993d
00000030: b716 8dbe 4486 983e 04a0 a4be 2e7e f8be

2.weight f4 [32, 16]
0.39340082 0.38297912 0.38423026 -0.24358281 0.10428631 -0.109392054 -1.1603774 0.46365526
-0.3158317 -0.123126596 -0.12764053 -0.41149545 -0.36944824 0.27743766 -0.33530554 0.15419473
-0.7906186 0.1316548 -0.6274407 0.36377347 0.2522696 0.21208262 0.44268247 0.3713168
-0.091830656 -0.09287024 -0.26924217 0.072232455 -0.08409244 -0.2920806 0.005536308 0.07383061
-0.2604794 0.38961124 -0.6514755 0.31177518 0.23067693 0.023789229 0.18578185 0.011236305
-0.12828253 -0.53504455 0.2829558 0.35399863 0.30703342 0.64956284 0.22872542 -0.097232886
-0.32921264 0.29754052 -0.7778102 0.11103039 0.31230748 -0.16494589 0.34900025 0.08393537
-0.43983006 -0.014300835 -0.17709583 0.32768935 0.19206421 -0.4545787 0.23634765 -0.43156996
-0.052269872 0.25978658 -0.9720936 0.2224523 0.17429073 0.12497083 0.53517294 0.449382
-0.22185306 0.07269988 0.4053496 0.23937444 0.1792001 -0.67408615 0.28498316 -0.07969991
-0.2937042 0.12948117 -0.59020656 0.53436667 -0.10084685 0.4863076 0.4303466 0.06687097
-0.31080866 -0.40660116 -0.07681237 0.4486455 0.16454066 -0.31893218 0.22109409 -0.12747249
-1.1081495 -0.5521578 -0.0796114 -0.2824204 0.36144972 0.030275807 -0.07461081 -0.47018486
0.05225349 -0.8400035 0.57169735 0.16311768 -0.28646785 -0.9199451 -0.2856408 -0.07030804
0.00027112637 0.6181869 -0.0047655744 -0.13958707 -0.4084142 -0.30533987 -0.4797939 0.5287096
-0.1483956 1.1049227 0.59971315 -0.20615411 0.017408805 0.22985221 0.14021741 -0.05658092
-0.5741722 0.061994985 0.34186575 -0.4029055 0.33457822 -0.44626656 0.1132276 0.574256
0.38863102 -0.6234439 0.3868804 0.100580126 0.4045592 -0.95959973 0.4271817 0.11344267
0.29903996 0.07458799 0.41662306 -0.00801894 -0.40019163 -0.46338627 -0.27902704 0.2662476
0.32720664 0.39766783 -0.13475312 0.05262432 -0.5173171 -0.08698291 -0.08843882 -0.04699145
-1.1277808 0.4266197 -0.6373074 -0.11613771 0.5632795 0.13935857 0.15460931 0.10595528
0.15662415 0.096583396 -0.14322825 -0.4319835 -0.24049634 -0.782653 0.47710815 -0.12304002
-0.4073911 0.25842637 -0.32331824 0.4234943 0.19770399 -0.05802094 0.23256299 0.06629301
-0.0051802676 -0.48442242 0.27483472 0.027938584 0.047154658 -0.55776167 0.27539697 0.08000078
0.0562038 -1.2778236 -0.049252566 -0.74678004 0.5382609 0.3513892 0.71156573 0.4857596
-0.8342487 -0.3009779 -0.27870914 0.25848535 0.27423754 0.25992882 -0.63488483 -0.0330418
-0.18597703 -0.16797224 -0.27727786 -0.110291906 -0.3020635 0.077858575 0.075599715 -0.18718983
-0.23323046 -0.25374734 0.3840814 0.031823922 0.025571678 -0.42980447 0.19299625 -0.10883295
0.14916436 -0.1954312 0.33662686 -0.6761555 -0.3236497 -0.8423757 0.49569714 -0.020801064
0.5402407 0.33601847 -0.024766084 0.013656412 -0.4820319 -0.65056723 -0.4368491 -0.24345513
-0.49686077 0.17900403 -0.6415643 0.32938963 0.3084033 -0.21907055 0.3910568 0.35765713
-0.111446954 -0.20358616 -0.021113276 -0.0640721 0.25728926 -0.64968175 0.17730035 -0.0021053238
00000000: d56b c93e d715 c43e d4b9 c43e c66d 79be
00000010: 1094 d53d f108 e0bd 3f87 94bf 3964 ed3e
00000020: b1b4 a1be cc29 fcbd 33b4 02be 88af d2be
00000030: 5228 bdbe 4f0c 8e3e 2bad abbe 39e5 1d3e
00000040: fb65 4abf 84d0 063e f49f 20bf 8440 ba3e
00000050: 7b29 813e 302c 593e 47a7 e23e 3c1d be3e
00000060: b611 bcbd c132 bebd 1cda 89be 9cee 933d
00000070: a838 acbd 978b 95be eb69 b53b 8134 973d
00000080: 8e5d 85be 207b c73e 19c7 26bf ffa0 9f3e
00000090: 9336 6c3e a1e1 c23c 993d 3e3e 7b18 383c
000000a0: 7f5c 03be aef8 08bf 95df 903e 4f3f b53e
000000b0: 7c33 9d3e c049 263f ff36 6a3e 0922 c7bd
000000c0: 8f8e a8be 3b57 983e 921e 47bf e763 e33d
000000d0: c4e6 9f3e 93e7 28be 29b0 b23e 4fe6 ab3d
000000e0: 6831 e1be 0d4e 6abc 9c58 35be e6c6 a73e
000000f0: 7bac 443e 8abe e8be 1e05 723e bdf6 dcbe
00000100: ef18 56bd bf02 853e 20db 78bf 89ca 633e
00000110: 4579 323e b5f0 ff3d 1801 093f 6615 e63e
00000120: 732d 63be ade3 943d fc89 cf3e 931e 753e
00000130: 3b80 373e e990 2cbf 50e9 913e b539 a3bd
00000140: 6660 96be b696 043e c717 17bf 41cc 083f
00000150: cb88 cebd 4ffd f83e 6456 dc3e a6f3 883d
00000160: 5022 9fbe 072e d0be ce4f 9dbd ddb4 e53e
00000170: 597d 283e 144b a3be 7d66 623e 2688 02be
00000180: d8d7 8dbf 375a 0dbf 4d0b a3bd 6899 90be
00000190: f00f b93e f804 f83c 8dcd 98bd 12bc f0be
000001a0: c107 563d 780a 57bf c25a 123f 5208 273e
000001b0: eaab 92be 8681 6bbf 833f 92be a9fd 8fbd
000001c0: f725 8e39 7f41 1e3f 8928 9cbb eaef 0ebe
000001d0: ab1b d1be 8255 9cbe 8ca7 f5be 8359 073f
000001e0: 04f5 17be 1b6e 8d3f cd86 193f 101a 53be
000001f0: e99c 8e3c 615e 6b3e 2795 0f3e 65c1 67bd
00000200: f3fc 12bf 74ee 7d3d 0709 af3e a149 cebe
00000210: d64d ab3e 0d7d e4be dfe3 e73d 7102 133f
00000220: a5fa c63e 059a 1fbf 3015 c63e f4fc cd3d
00000230: 6222 cf3e 54a8 75bf 8fb7 da3e a154 e83d
00000240: c41b 993e 97c1 983d 9e4f d53e df61 03bc
00000250: ebe5 ccbe f740 edbe a2dc 8ebe 9b51 883e
00000260: a187 a73e 1e9b cb3e b9fc 09be 998c 573d
00000270: e56e 04bf 1924 b2bd 691f b5bd 1b7a 40bd
00000280: 1f5b 90bf e66d da3e 9426 23bf 9cd9 edbd
00000290: 1633 103f 03b4 0e3e e751 1e3e 15ff d83d
000002a0: 1562 203e 84cd c53d 6daa 12be f12c ddbe
000002b0: ac44 76be f25b 48bf 8547 f43e 68fc fbbd
000002c0: 9195 d0be 7650 843e f889 a5be 3fd4 d83e
000002d0: ea72 4a3e 5da7 6dbd fe24 6e3e a1c4 873d
000002e0: 3cbf a9bb 3706 f8be 23b7 8c3e 75df e43c
000002f0: 3e25 413d 78c9 0ebf d500 8d3e 73d7 a33d
00000300: f535 663d b98f a3bf 0fbd 49bd fa2c 3fbf
00000310: 77cb 093f 49e9 b33e 2c29 363f 7bb5 f83e
00000320: 5391 55bf c619 9abe f7b2 8ebe 3158 843e
00000330: dd68 8c3e 6415 853e d087 22bf d756 07bd
00000340: c370 3ebe ea00 2cbe 5df7 8dbe b9e0 e1bd
00000350: 11a8 9abe 5174 9f3d 06d4 9a3d b1ae 3fbe
00000360: f7d3 6ebe 2ceb 81be 51a6 c43e cd59 023d
00000370: b27b d13c 550f dcbe cfa0 453e cfe3 debd
00000380: 8bbe 183e 1e1f 48be 5b5a ac3e 8718 2dbf
00000390: 6ab5 a5be efa5 57bf 04cc fd3e fe66 aabc
000003a0: 374d 0a3f 9d0a ac3e 3ee2 cabc 25bf 5f3c
000003b0: e3cc f6be 938b 26bf afaa dfbe 4d4c 79be
000003c0: 8964 febe d54c 373e 8f3d 24bf c2a5 a83e
000003d0: 0ae7 9d3e 0854 60be 9938 c83e d61e b73e
000003e0: 4d3e e4bd e478 50be c0f5 acbc 3c38 83bd
000003f0: 6bbb 833e 8b51 26bf 398e 353e 79f9 09bb

2.bias f4 [32]
-0.43984863 0.1045631 0.41103575 -0.000371796 0.0057245246 -0.077395976 0.16939189 -0.07703399
-0.031225568 0.13760541 -0.3465313 -0.119171426 -0.36961603 -0.10055043 0.40278184 0.028916527
-0.122217156 -0.41106725 -0.08635952 0.44247782 -0.12677442 0.23754013 -0.27882603 0.09421413
0.2712922 -0.3730996 -0.021802338 0.43447542 0.26869455 -0.27377954 -0.13578063 -0.6451144
00000000: d733 e1be 2e25 d63d 4773 d23e 9ded c2b9
00000010: cb94 bb3b c881 9ebd 1175 2d3e ffc3 9dbd
00000020: c3cc ffbc 6fe8 0c3e 8d6c b1be 2610 f4bd
00000030: 503e bdbe 62ed cdbd 6c39 ce3e 5ae2 ec3c
00000040: fd4c fabd 6877 d2be 43dd b0bd 748c e23e
00000050: 27d1 01be b83d 733e 49c2 8ebe 56f3 c03d
00000060: d0e6 8a3e e906 bfbe d19a b2bc 9073 de3e
00000070: 5592 893e d52c 8cbe 140a 0bbe 3826 25bf

4.weight f4 [32, 32]
0.54174525 0.18063281 0.036395747 -0.11462499 -0.22093524 -0.1453969 -0.41140687 0.31005
-0.48014396 0.15284276 -0.6895985 0.024649838 0.86643565 0.09662942 0.4676523 0.05294686
0.725036 0.5445103 -0.29467782 0.39783582 -0.22857629 -0.10318191 -0.3462388 -0.09705508
0.62184525 -0.015881337 -0.20589572 0.56566775 0.7588202 -0.0025218064 0.5435256 0.63430595
0.418359 0.10587413 -0.07218925 -0.07960216 0.10638226 -0.14240962 -0.29397535 0.43999088
-0.44362345 -0.030306652 -0.39422426 -0.13754544 0.7515966 0.26297265 0.36958182 -0.1447992
0.63784415 0.8263113 -0.44311082 0.44105214 -0.6532617 -0.036220033 -0.31628564 -0.023524858
0.33295363 0.18680178 -0.046160202 0.35770234 0.7165337 -0.2030196 0.46353683 0.4324303
-0.31723815 0.070165254 -0.09983398 -0.12061241 -0.16347224 -0.027829174 0.00998737 -0.10060779
-0.0014162184 0.055914145 -0.16850787 0.076611206 -0.12512434 -0.119708575 -0.107400745 0.078508615
-0.047549587 -0.048264105 -0.06403748 -0.22206244 0.02073246 0.05636591 0.05014575 -0.037899658
-0.1714747 0.10537304 -0.16038135 -0.1033131 0.015829958 -0.23923214 -0.15614468 -0.11345142
0.25339666 -0.069532946 -0.030127693 -0.09173814 -0.15644132 0.07524258 -0.122449294 -0.2995101
-0.16659422 -0.14143242 -0.005764651 -0.120949574 0.061568875 -0.23544593 -0.2142492 0.05641573
0.14297113 -0.08123858 -0.036368046 -0.025535 -0.115782656 -0.17355585 -0.1359 0.06896409
-0.10047044 -0.19192185 -0.100639656 -0.09829958 0.056832418 0.037088856 -0.036343407 0.009874525
-0.07403486 0.48044148 0.42529634 0.1553276 0.0627527 0.3945454 0.8825942 0.2578825
0.8198834 0.16353913 0.5166711 0.25803465 -0.33275208 0.09187218 0.089853756 0.20895202
-0.35385558 -0.6822098 0.5182066 0.018187847 0.6361328 -0.55603623 0.32135943 0.78224367
-0.15444 -0.18549751 0.504604 -0.12703826 -0.74387425 0.24559794 -0.34961268 -0.79690963
-0.22217046 -0.019492876 0.080543175 -0.06687988 -0.1388272 -0.14185427 -0.1470417 -0.14231534
0.04430034 -0.29819646 0.12774436 -0.17367937 -0.03572527 -0.03525023 -0.043972567 -0.07535546
-0.09092232 0.05542226 -0.14546546 -0.23123592 -0.26549646 -0.067081854 -0.0643582 -0.14302781
-0.25953352 -0.080419116 0.14828321 -0.012293877 0.0067316215 0.06362667 -0.16612162 -0.006280828
0.6059848 -0.016446117 0.047524408 0.069468625 -0.04543799 -0.25721985 -0.33107585 0.18879256
-0.39515114 0.15901366 -0.5498037 -0.19037579 0.8536297 0.071439646 0.23234631 -0.21491374
0.56669915 0.54592407 -0.47772962 0.5532738 -0.15241225 -0.0044061197 -0.29330358 -0.030030662
0.5575442 0.029568797 -0.18694568 0.6195554 0.79920644 -0.13024509 0.2997739 0.3841038
0.3652113 0.22923787 0.07579178 0.063399605 -0.16468693 -0.17100975 -0.25800616 0.31833395
-0.401339 -0.005092376 -0.5954553 0.08519839 0.7590768 -0.10338884 0.40484205 -0.11843156
0.5309572 0.48568267 -0.40363047 0.4174002 -0.1383401 -0.05344128 -0.06850965 -0.10956728
0.43997753 0.080630176 -0.28558704 0.47194034 0.6739763 0.11130993 0.49187827 0.57565016
00000000: d1af 0a3f cff7 383e b513 153d 82c0 eabd
00000010: d93c 62be ede2 14be eca3 d2be e0be 9e3e
00000020: 6ed5 f5be d082 1c3e 8789 30bf 75ee c93c
00000030: bace 5d3f a5e5 c53d 1f70 ef3e cfde 583d
00000040: f69b 393f 0765 0b3f 03e0 96be 23b1 cb3e
00000050: e70f 6abe 0a51 d3bd 3646 b1be d0c4 c6bd
00000060: 4031 1f3f 9419 82bc 54d6 52be 9acf 103f
00000070: 0a42 423f e444 25bb 7e24 0b3f e061 223f
00000080: 2733 d63e 89d4 d83d f5d7 93bd 7506 a3bd
00000090: f1de d93d d4d3 11be f083 96be 7c46 e13e
000000a0: 9d22 e3be a845 f8bc c3d7 c9be b6d8 0cbe
000000b0: a368 403f 5aa4 863e d439 bd3e 3e46 14be
000000c0: c149 233f 2389 533f 6cdf e2be 96d1 e13e
000000d0: 293c 27bf 755b 14bd 31f0 a1be 34b7 c0bc
000000e0: e678 aa3e f748 3f3e 7b12 3dbd c324 b73e
000000f0: c16e 373f 5fe4 4fbe b354 ed3e 8167 dd3e
00000100: 0a6d a2be cdb2 8f3d c275 ccbd a403 f7bd
00000110: 4465 27be 02fa e3bc 11a2 233c 750b cebd
00000120: 67a0 b9ba 3b06 653d 548d 2cbe 56e6 9c3d
00000130: 9820 00be c529 f5bd ecf4 dbbd 20c9 a03d
00000140: 5bc3 42bd 95b0 45bd 1526 83bd 5664 63be
00000150: 1fd7 a93c f1df 663d a165 4d3d ac3c 1bbd
00000160: 1097 2fbe d2cd d73d 023b 24be d295 d3bd
00000170: d4ad 813c 45f9 74be 64e4 1fbe 3859 e8bd
00000180: 35bd 813e 4a67 8ebd 5ace f6bc 35e1 bbbd
00000190: 2732 20be c818 9a3d b2c6 fabd 6359 99be
000001a0: ad97 2abe a9d3 10be 66e5 bcbb 69b4 f7bd
000001b0: a52f 7c3d bd18 71be 2464 5bbe 2e14 673d
000001c0: 0667 123e 6a60 a6bd a9f6 14bd c72e d1bc
000001d0: 751f edbd a0b8 31be 5f29 0bbe 0b3d 8d3d
000001e0: 72c3 cdbd 2987 44be 2a1c cebd 4a51 c9bd
000001f0: 1cc9 683d 7cea 173d d3dc 14bd c2c8 213c
00000200: 979f 97bd 6dfc f53e 71c0 d93e 330e 1f3e
00000210: 7d84 803d db01 ca3e b2f1 613f 2d09 843e
00000220: e1e3 513f cd76 273e 8f44 043f 1e1d 843e
00000230: 7b5e aabe 7b27 bc3d 3f05 b83d 85f7 553e
00000240: 8f2c b5be 4da5 2ebf 30a9 043f aefe 943c
00000250: 99d9 223f 6458 0ebf 3989 a43e 1f41 483f
00000260: 8525 1ebe 0ff3 3dbe ba2d 013f 5116 02be
00000270: 8b6e 3ebf 077e 7b3e 6f00 b3be 4502 4cbf
00000280: a780 63be 86af 9fbc d2f3 a43d 52f8 88bd
00000290: b828 0ebe 3f42 11be 1992 16be 1dbb 11be
000002a0: 4674 353d 35ad 98be 6bcf 023e 01d9 31be
000002b0: a954 12bd 8c62 10bd 941c 34bd f753 9abd
000002c0: 7b35 babd 7402 633d e6f4 14be 1cc9 6cbe
000002d0: 27ef 87be 3662 89bd 3bce 83bd e275 12be
000002e0: 94e1 84be c7b2 a4bd 8ed7 173e 426c 49bc
000002f0: ef94 dc3b b34e 823d c91b 2abe 67cf cdbb
00000300: d221 1b3f 02ba 86bc f4a8 423d 9145 8e3d
00000310: 301d 3abd 52b2 83be c682 a9be d652 413e
00000320: 4051 cabe 7ad4 223e efbf 0cbf dff1 42be
00000330: 7a87 5a3f f34e 923d 31ec 6d3e 5912 5cbe
00000340: 3213 113f aec1 0b3f fa98 f4be 5aa3 0d3f
00000350: f511 1cbe 3661 90bb e32b 96be dd02 f6bc
00000360: 37bb 0e3f 433a f23c b06e 3fbe 2f9b 1e3f
00000370: cb98 4c3f f85e 05be f77b 993e 41a9 c43e
00000380: fafc ba3e 55bd 6a3e b938 9b3d a7d7 813d
00000390: b1a3 28be 2e1d 2fbe 6219 84be abfc a23e
000003a0: 4e7c cdbe f2dd a6bb c26f 18bf 7e7c ae3d
000003b0: db52 423f 87bd d3bd 7547 cf3e 3f8c f2bd
000003c0: d0ec 073f 66ab f83e a7a8 cebe 7bb5 d53e
000003d0: 07a9 0dbe 3ee5 5abd ca4e 8cbd cf64 e0bd
000003e0: bc44 e13e 6f21 a53d 7738 92be 2aa2 f13e
000003f0: b689 2c3f 76f6 e33d 78d7 fb3e cf5d 133f

4.bias f4 [32]
-0.003862728 0.020176437 -0.17066552 -0.37463656 0.08366728 -0.29947728 -0.07646385 -0.053109534
-0.05564028 -0.20271754 -0.33321205 0.07376695 0.17928162 -0.25726333 -0.0671046 0.36278602
0.19144693 -0.05169427 -0.15343408 0.29429263 0.091347225 0.2661782 -0.10688358 0.24597129
0.21717297 -0.18225996 -0.16967276 0.08913918 0.26120704 -0.22661187 0.25700727 -0.24748126
00000000: d225 7dbb 0e49 a53c f1c2 2ebe 5dd0 bfbe
00000010: c059 ab3d 1655 99be 1499 9cbd 6289 59bd
00000020: 10e7 63bd 3095 4fbe c59a aabe 2013 973d
00000030: 9a95 373e 05b8 83be 236e 89bd 17bf b93e
00000040: aa0a 443e 5fbd 53bd d31d 1dbe 86ad 963e
00000050: 4114 bb3d 8248 883e c7e5 dabd e6df 7b3e
00000060: 9762 5e3e 5ba2 3abe b2be 2dbe 9a8e b63d
00000070: eebc 853e f10c 68be 7596 833e ba6b 7dbe

6.weight f4 [1, 32]
-0.5093415 -0.53014964 -0.12451512 -0.045416623 0.68475056 0.022843067 -0.4817231 -0.5663222
-0.33703884 0.013118005 -0.11810246 -0.5916233 0.47703102 -1.1419263 -0.3873829 0.6470738
0.5438774 -0.5542021 0.03422505 0.5477309 0.49234313 0.5950152 -0.20200121 -0.6676715
0.59389687 0.034623627 0.081153646 -0.67529315 0.5655193 0.10483636 0.5722529 -0.06965961
00000000: 3464 02bf e3b7 07bf c901 ffbd c806 3abd
00000010: d04b 2f3f 6221 bb3c 69a4 f6be 7efa 10bf
00000020: 5b90 acbe e7ec 563c b4df f1bd a074 17bf
00000030: 693d f43e a42a 92bf 0d57 c6be a1a6 253f
00000040: 8d3b 0b3f 30e0 0dbf 912f 0c3d 1838 0c3f
00000050: 6614 fc3e eb52 183f 68d9 4ebe 85ec 2abf
00000060: a009 183f 81d1 0d3d e233 a63d 03e0 2cbf
00000070: dfc5 103f 72b4 d63d 2b7f 123f b3a9 8ebd
