Practical_ANN_projects/Smart_calculator.pt (torch, 8863 bytes, 6 tensors)

input.weight f4 [25, 2]
0	0x3d5279a0	0.051385522
1	0xbd1ee608	-0.038793594
2	0xbe16366c	-0.14669198
3	0x3dd0d29b	0.1019642
4	0xbdf5276c	-0.1197041
5	0x3dd170f1	0.1022662
6	0x3dbf70b1	0.09347666
7	0xbd7408f3	-0.059578847
8	0x3f5f903b	0.87329453
9	0x3f63b4ae	0.8894757
10	0x3e0c5c17	0.13707004
11	0xbe45dd87	-0.19322787
12	0xbe8b00c6	-0.27149028
13	0xbe82c2ef	-0.25539348
14	0xbaf246f1	-0.0018484277
15	0x3c8edb37	0.017438514
16	0x3e0717d4	0.13192683
17	0x3c72bb15	0.014815112
18	0x3c8abe4d	0.016936446
19	0x3c204a32	0.009783315
20	0xbf2e5b73	-0.6810829
21	0xbf25c32d	-0.6475094
22	0x3fc2d7da	1.5222123
23	0x3fc44517	1.5333585
24	0xbf94790d	-1.1599442
25	0xbf94933e	-1.1607435
26	0x3fb66c4c	1.42518
27	0x3fab8c4d	1.3402191
28	0xbf9c1ffa	-1.2197258
29	0xbf9dc2cb	-1.2325071
30	0xbe00403d	-0.12524505
31	0x3e0f56bc	0.1399793
32	0xbe28d9a2	-0.1648927
33	0x3e0bcd8b	0.13652627
34	0xbd2e417c	-0.04254292
35	0x3ce97f8f	0.028503207
36	0xbfc4932f	-1.5357417
37	0xbfc552d4	-1.5415902
38	0x3df447f6	0.11927788
39	0xbe033ea7	-0.12816869
40	0x3f8bdb10	1.0926228
41	0x3f9979d8	1.1990309
42	0x3d8135cb	0.06309088
43	0xbd2c771b	-0.042105775
44	0xbc434956	-0.01191934
45	0xbdbed9b1	-0.09318865
46	0xbabef510	-0.0014568884
47	0xbc102612	-0.008798139
48	0xbf8c2846	-1.094979
49	0xbf8a376d	-1.0798165

input.bias f4 [25]
0	0x3fcbc32c	1.5918937
1	0x40991bca	4.784642
2	0x40894a31	4.2903066
3	0x409455bd	4.635466
4	0xbef8d4d4	-0.48599875
5	0x409adbf3	4.8393493
6	0xbfb02bc9	-1.3763362
7	0x3fc304a4	1.5235791
8	0xbfc9bb80	-1.5760345
9	0xbea5c7df	-0.32379052
10	0xc03d23dc	-2.9553137
11	0xbe0de3a1	-0.13856365
12	0xc02b85a6	-2.6800323
13	0xc02c1f21	-2.6894
14	0xbee1f876	-0.44134873
15	0x4067a0f7	3.6191995
16	0x403b8c90	2.9304543
17	0xbf980ccb	-1.1878904
18	0xbf2124ed	-0.6294697
19	0x402d9c2a	2.7126565
20	0xc01faaf6	-2.4948096
21	0xbf9f7a80	-1.2459259
22	0x40962da3	4.693071
23	0x3faec7f7	1.3654774
24	0xc04599b6	-3.0875068

fc.weight f4 [25, 25]
0	0xbe351a31	-0.17685772
1	0xbe635cac	-0.2220332
2	0xbcfdda66	-0.03098793
3	0xbe984a9a	-0.29744416
4	0x3d7b99d8	0.061426014
5	0x3d5928dd	0.053017486
6	0xbf685425	-0.90753394
7	0xbd332433	-0.043735694
8	0x3e0c187d	0.13681217
9	0xbe45ae89	-0.19304861
10	0xbf165b36	-0.58732927
11	0xbdec48d4	-0.11537328
12	0xbf0e3047	-0.55542415
13	0xbe4e4ef4	-0.20147306
14	0xbd0dc8b8	-0.03461525
15	0xbdbcee4f	-0.09225141
16	0xbda06b4a	-0.07832964
17	0x3e975a4b	0.29561076
18	0xbd9877a9	-0.07444698
19	0xbdf71f4f	-0.120665185
20	0xbf14bbf6	-0.58099306
21	0x3e4e6813	0.20156889
22	0xbc63505c	-0.01387414
23	0xbe7a1b53	-0.24424486
24	0xbf428900	-0.75990295
25	0xbde0f513	-0.10984244
26	0xbe5c7e41	-0.21532537
27	0x3dc36b93	0.095420025
28	0xbe8029e7	-0.2503197
29	0xbd85e1f8	-0.06537241
30	0xbe77c316	-0.24195513
31	0xbe29f219	-0.16596259
32	0x3e0f8b1a	0.14017907
33	0xbd2f471a	-0.042792417
34	0xbe0053db	-0.12531988
35	0x3dd59be3	0.10430124
36	0xbe1fa6a8	-0.15590918
37	0xbdde6f97	-0.10861128
38	0x3d6aa6b3	0.057287883
39	0xbe7282a6	-0.23682651
40	0xbdd8af24	-0.105802804
41	0xbd9531fb	-0.07284924
42	0x3db5194e	0.08842717
43	0xbe6d1502	-0.23152545
44	0xbe9a8e1a	-0.3018654
45	0xbc9df58a	-0.019282121
46	0xbe5b4b91	-0.21415545
47	0xbe077b6d	-0.13230677
48	0xbe0919ad	-0.13388701
49	0xbd28dc1f	-0.04122555
50	0x3d281f3c	0.041045412
51	0xbdf92b16	-0.12166421
52	0xbe9873a6	-0.29775733
53	0xbe57072f	-0.20998834
54	0x3db161bc	0.086612195
55	0xbea418a2	-0.32050043
56	0xbe7c1e1c	-0.24620861
57	0x3dccf08b	0.100068174
58	0xbe094f2b	-0.13409106
59	0xbeaa07c4	-0.3320905
60	0x3c23f1f7	0.010006419
61	0x3bb45c04	0.005504133
62	0xbe8ef2ef	-0.2791972
63	0x3df487a4	0.11939934
64	0x3c980d9a	0.018561173
65	0xbe1fe922	-0.15616277
66	0xbe9d4caf	-0.30722567
67	0x3dd273dd	0.102760054
68	0x3b976852	0.0046205902
69	0xbe5507d1	-0.20803763
70	0xbe328df9	-0.17436971
71	0xbd402f1c	-0.046919927
72	0xbec42610	-0.3831029
73	0xbe824da3	-0.25449857
74	0xbd2c416a	-0.04205457
75	0x3e1ad205	0.15119179
76	0x3e522202	0.20520785
77	0x3ee69d23	0.4504176
78	0x3eead300	0.45864105
79	0xbe9905c3	-0.29887208
80	0x3ed02afa	0.4065779
81	0xbf79faaa	-0.9764811
82	0x3e0a02c7	0.13477622
83	0x3e6d9cd7	0.23204361
84	0x3ec8e1f2	0.39234883
85	0xbeb7a1f9	-0.35865763
86	0xbef2a9b5	-0.473951
87	0xbfdcc04e	-1.7246187
88	0xbed2f861	-0.41205123
89	0xc0848875	-4.1416574
90	0x3e9be63f	0.304491
91	0x3e85c4bf	0.26126668
92	0x3e873172	0.2640491
93	0xc081b3dd	-4.053206
94	0x3e6c0eb1	0.2305248
95	0xbf097d48	-0.5370679
96	0x3f077968	0.52919626
97	0x3ebfd349	0.37465885
98	0x3e447aaf	0.19187425
99	0xbf8874b6	-1.0660617
100	0xbb4129ad	-0.0029474304
101	0xbe69b0cb	-0.22821347
102	0xbec28c53	-0.37997684
103	0xbe1bfdbb	-0.15233509
104	0x3ec8acc3	0.39194307
105	0xbe88d78f	-0.26726958
106	0xbea448c9	-0.3208678
107	0xbe268563	-0.1626182
108	0x3e2b4db4	0.1672886
109	0xbe49c5f3	-0.19704418
110	0xbe65c86c	-0.22439736
111	0x3f146667	0.57968754
112	0xbee585cc	-0.4482864
113	0x3f2fa780	0.6861496
114	0xbfac4ff3	-1.3461899
115	0x3df7e785	0.12104706
116	0xbef073bb	-0.46963295
117	0xbd1b5a98	-0.037928194
118	0xbfd33435	-1.6500307
119	0xbe898360	-0.26858044
120	0x3ed7e27a	0.42164975
121	0x3ea1692a	0.31525546
122	0xbe7311c7	-0.2373725
123	0xbeb2c91e	-0.34919065
124	0xbf502d7b	-0.813194
125	0x3dd9cb8c	0.106345266
126	0x3ed81bcd	0.4220871
127	0x3e5e943e	0.21736237
128	0x3e802e40	0.25035286
129	0xbf930a49	-1.1487514
130	0x3f207c33	0.6268951
131	0xbee49d25	-0.44651142
132	0x3cc75923	0.024334496
133	0xbe8e9e9f	-0.27855393
134	0xbe786057	-0.242555
135	0xbdac5e5a	-0.08416434
136	0xbfc04412	-1.5020773
137	0xbfb084a2	-1.3790476
138	0xbffced1f	-1.9759864
139	0xc040db1a	-3.013373
140	0x3e82988f	0.25507018
141	0x3ea7a173	0.32740363
142	0xbe23a9e9	-0.15982784
143	0xc04ba1ee	-3.1817584
144	0x3e754e74	0.23955709
145	0xbfc49caf	-1.5360316
146	0xbe1123d5	-0.14173825
147	0x3f191d64	0.5981047
148	0xbd1250c3	-0.03572155
149	0xbf2eb799	-0.682489
150	0x3e8c073d	0.27349272
151	0x3f8cfeb0	1.1015224
152	0x3f83de62	1.0302241
153	0x3f9a191a	1.203891
154	0xbe68504d	-0.22686882
155	0x3f94cd54	1.1625161
156	0xbecd13bf	-0.40054128
157	0x3e899ac4	0.2687589
158	0x3d4744ff	0.048649784
159	0x3da9538c	0.082678884
160	0xbf7c3c4c	-0.98529506
161	0xbf0dccad	-0.55390435
162	0xbf467a8c	-0.7753074
163	0xbf6be746	-0.9214977
164	0xbf6210b8	-0.8830676
165	0x3f47d2d0	0.7805605
166	0x3f08b737	0.53404564
167	0xbb6e9efd	-0.0036410682
168	0xbf7d8097	-0.9902434
169	0x3ed2f345	0.41201225
170	0xbf53fccc	-0.8280761
171	0x3d59e77e	0.053199284
172	0x3fc160f6	1.5107715
173	0x3e80cdbc	0.25156963
174	0xbf942949	-1.1575099
175	0x3e399442	0.18122962
176	0x3eda9db4	0.42698443
177	0x3f0bf2ec	0.54667544
178	0x3f0c99ac	0.54921985
179	0xc06c5a63	-3.6930168
180	0x3f0bb0c4	0.545666
181	0xbed139d4	-0.40864432
182	0x3eba5965	0.36396328
183	0x3e27298d	0.16324444
184	0x3e55cccc	0.20878905
185	0xbee0ddbf	-0.4391918
186	0xc0af16fd	-5.471556
187	0xbeeb83f1	-0.459991
188	0xc04226f4	-3.0336275
189	0xbf7c4aba	-0.98551524
190	0x3ed91677	0.42399952
191	0x3eebca14	0.4605261
192	0x3e0f90b8	0.1402005
193	0xbf8b2e0b	-1.0873426
194	0x3efaa0f5	0.48950925
195	0xc02b3ca2	-2.6755757
196	0x3df1d3ad	0.11807952
197	0x3f49e11f	0.7885913
198	0x3ea0a55a	0.31376153
199	0xbf100eb1	-0.5627242
200	0x3d94ebee	0.072715625
201	0xbe89073c	-0.26763332
202	0xbea7b33c	-0.32753932
203	0xbe059375	-0.13044532
204	0xbf3079ef	-0.68936056
205	0x3da231b6	0.07919638
206	0xbe2861bd	-0.16443534
207	0xbecb22eb	-0.39675078
208	0x3ddda327	0.108221345
209	0x3db53750	0.08848441
210	0x3df94ceb	0.12172874
211	0xbf41dce8	-0.757277
212	0xbe7dcb33	-0.24784546
213	0xbe0ea393	-0.13929586
214	0xbee00fdd	-0.43762103
215	0x3ef1d800	0.47235107
216	0xbe5e8e43	-0.21733956
217	0xbf161b54	-0.5863545
218	0xbf14711b	-0.57985085
219	0xbd810146	-0.06299071
220	0xbe52bf5c	-0.2058081
221	0x3e28b6e6	0.1647602
222	0xbdfaeafe	-0.122518525
223	0xbcaa313e	-0.020775434
224	0xbbb9ec9f	-0.0056739594
225	0xbe16003b	-0.14648525
226	0x3e61196d	0.21982355
227	0xbd2d8374	-0.04236169
228	0xbc1e8925	-0.0096762525
229	0xbf1403be	-0.5781821
230	0x3d015fef	0.03158563
231	0xbe890917	-0.26764748
232	0x3dd08707	0.101820044
233	0xbdbfe35f	-0.093695395
234	0xbc9c24f6	-0.019060593
235	0xbacae4d0	-0.0015479568
236	0xbf325926	-0.6966728
237	0xbeb166fa	-0.34648877
238	0xbed366b8	-0.41289306
239	0xbe69d19b	-0.22833864
240	0xbdf1d26a	-0.118077114
241	0xbe17bd72	-0.14818361
242	0xbdf209ce	-0.11818276
243	0xbeff3385	-0.49843994
244	0xbdb91a5e	-0.09038232
245	0xbefd7278	-0.49501395
246	0xbe8065ab	-0.25077567
247	0xbcf0b583	-0.029383427
248	0xbd58eed2	-0.05296213
249	0xbecc49ab	-0.39899954
250	0x3e9e352c	0.30899942
251	0x3f15a6af	0.58457464
252	0x3f2ee744	0.68321633
253	0x3f331779	0.6995769
254	0xbf26d629	-0.6517053
255	0x3f107850	0.5643358

fc.bias f4 [25]
0	0xbdabff35	-0.08398286
1	0xbd90732c	-0.07053217
2	0xbe3c55e4	-0.1839214
3	0x3ed614db	0.41812786
4	0xbf5218a8	-0.8206887
5	0x3f2fc8aa	0.68665564
6	0x3fda997d	1.7078091
7	0x3f4b5ad9	0.794355
8	0xbce84409	-0.028352754
9	0xbe5ee7ba	-0.21768084
10	0x3f523925	0.82118446
11	0x3e2688c3	0.16263108
12	0x3fbe591d	1.4870945
13	0xbf4a6edd	-0.79075414
14	0xbe59350f	-0.21211646
15	0x3fa55027	1.2915086
16	0xbe021a7b	-0.12705414
17	0xbea7ba18	-0.32759166
18	0xbf3c0aeb	-0.7345416
19	0x3fc74dcb	1.5570616
20	0x400839de	2.128532
21	0x3fca678e	1.5812852
22	0x4013ba01	2.3082278
23	0xbd93b307	-0.07211881
24	0x400d120c	2.2042265

output.weight f4 [37, 25]
0	0xbf035f47	-0.51317257
1	0x3e3d1525	0.18465097
2	0x3d5cffc9	0.053954873
3	0xbe67498f	-0.22586654
4	0xbe902c22	-0.2815867
5	0xbdad19d7	-0.08452194
6	0xbf225757	-0.6341452
7	0x3edc57f9	0.43035868
8	0xbea23986	-0.31684512
9	0xbe9b9ce5	-0.3039314
10	0x3e9ae6dc	0.30254257
11	0x3caa548a	0.020792264
12	0x3e1311be	0.14362237
13	0x3f7602ac	0.96097827
14	0x3ded23d1	0.11579097
15	0xbd9c7a5c	-0.07640526
16	0xbd7879d6	-0.060663067
17	0xbdf111a0	-0.1177094
18	0xbe9f48d7	-0.3111026
19	0xbda956a5	-0.08268479
20	0xc0838c86	-4.1109037
21	0xbed9177a	-0.42400724
22	0xbfac69c6	-1.346978
23	0x3c8d7042	0.017265443
24	0xc11da8c9	-9.853707
25	0xbe835bc3	-0.25655946
26	0x3da3ef2d	0.080046035
27	0x3bb82f54	0.0056208763
28	0xbe0cb720	-0.13741732
29	0xbf124abb	-0.5714528
30	0xbe9eb603	-0.3099824
31	0xbf55fbb9	-0.83587223
32	0x3ed2fede	0.41210073
33	0xbe4695ef	-0.19393133
34	0xbe88abff	-0.26693723
35	0x3ebad7ae	0.36492676
36	0xbe00cc87	-0.12578021
37	0xbdcbd4aa	-0.09952672
38	0x3f69ec0d	0.9137581
39	0x3e02e0ee	0.12781116
40	0xbe579c6d	-0.21055765
41	0x3e1ecc8c	0.15507716
42	0xbe4f4f15	-0.20245011
43	0xbe87f021	-0.2655039
44	0xbe97a182	-0.29615408
45	0xc0cd2fa6	-6.4120665
46	0xbdea9586	-0.114543006
47	0xbfb469a8	-1.4094744
48	0xbe3d33bd	-0.18476768
49	0xc0af8b54	-5.485758
50	0xbe8b2886	-0.27179354
51	0xbdae77fd	-0.0851898
52	0xbe9e57de	-0.30926412
53	0xbec29839	-0.38006762
54	0xbe798d10	-0.24370217
55	0xbe94ba4a	-0.29048377
56	0xbf25407c	-0.6455152
57	0x3ee0edd7	0.43931457
58	0x3d600484	0.054691806
59	0xbf141d63	-0.5785734
60	0x3edde6a7	0.43340036
61	0x3da701ae	0.08154617
62	0x3d6d735f	0.057971355
63	0x3f4df048	0.80444765
64	0xbe470a33	-0.19437484
65	0xbe49c793	-0.19705038
66	0x3c53d8fb	0.01293015
67	0xbe728f02	-0.23687366
68	0xbe966b7c	-0.2937888
69	0xbded6334	-0.11591187
70	0xc0e0a489	-7.020085
71	0xbed8443b	-0.42239556
72	0xbfd19d37	-1.6376103
73	0x3d69f75f	0.057120677
74	0xc048d046	-3.137712
75	0xbe4af280	-0.19819069
76	0x3e2ab86a	0.16671911
77	0xbe81ea70	-0.25374174
78	0xbee69b91	-0.45040563
79	0xbf054966	-0.5206512
80	0x3cbd93d0	0.023141772
81	0xbf036022	-0.5131856
82	0x3ebfc402	0.3745423
83	0xbe4d227a	-0.20032683
84	0xbf2ab7bc	-0.66686606
85	0x3e8badc4	0.2728101
86	0xbd445e25	-0.047941346
87	0xbd5f53b4	-0.054523185
88	0x3f1d578f	0.6146173
89	0x3e072f19	0.1320156
90	0xbe21ec48	-0.1581279
91	0xbd54309f	-0.05180418
92	0xbddb440f	-0.107063405
93	0xbdae0c31	-0.08498419
94	0x3d062af6	0.032755814
95	0xc0811cd9	-4.0347714
96	0xbf04c5e1	-0.5186444
97	0xc01b8ff7	-2.430662
98	0x3d331c3d	0.043728102
99	0xbf9f2fa2	-1.2436411
100	0xbf0a433a	-0.5400883
101	0xbd2c3880	-0.04204607
102	0xbe787137	-0.24261938
103	0xbe4cebc7	-0.20011817
104	0xbebc571e	-0.36785215
105	0xbe1d1a74	-0.15342122
106	0xbf51793a	-0.818256
107	0x3ed2de48	0.41185212
108	0xbd34f05a	-0.04417453
109	0xbf1a3cfb	-0.602493
110	0x3e9f063a	0.31059438
111	0x3dfb9c52	0.12285675
112	0x3db7e376	0.089789316
113	0x3eebd0a7	0.46057627
114	0xbce728f9	-0.02821778
115	0xbe96a6d6	-0.2942416
116	0x3e14606e	0.1448991
117	0xbed8f9f4	-0.423782
118	0xbe3d99b0	-0.18515658
119	0xbdf9848f	-0.12183487
120	0xbfbc8b1a	-1.472995
121	0xbee3a2a3	-0.4446002
122	0xc0c0847d	-6.016173
123	0x3d1e3e9f	0.03863394
124	0xbf38fff9	-0.72265583
125	0xbe95fb1a	-0.29293138
126	0xbc9fff75	-0.019530991
127	0xbcc7a756	-0.024371784
128	0xbe3a494a	-0.1819202
129	0xbf021e5c	-0.50827575
130	0xbe105acc	-0.14097136
131	0xbfa26fb1	-1.2690336
132	0x3e903f1c	0.2817315
133	0xbe8cd98f	-0.27509734
134	0xbe992fca	-0.29919273
135	0x3e9cf61a	0.3065651
136	0xbbeed180	-0.007288158
137	0xbe667f88	-0.22509587
138	0x3e07c617	0.13259159
139	0x3d6f2e68	0.058393866
140	0xbe96e336	-0.29470223
141	0xbd95f855	-0.07322756
142	0xbe5dc2d2	-0.2165635
143	0xbe9a53c8	-0.30142045
144	0xbe1ed2cc	-0.155101
145	0xbe301c92	-0.17198399
146	0xbe855b74	-0.26046336
147	0xc0e8b694	-7.2722874
148	0xbe5c1a5b	-0.21494429
149	0x3e3e2d73	0.18572025
150	0xbf0f7078	-0.5603099
151	0xbe362e2d	-0.17791052
152	0x3dcc4985	0.0997496
153	0xbe5a0556	-0.21291098
154	0xbe900df4	-0.28135645
155	0xbeae4720	-0.3403864
156	0xbfe907a5	-1.8205458
157	0x3e8326e2	0.25615603
158	0x3d0d8270	0.034548223
159	0xbe152a5d	-0.14566942
160	0x3e969e75	0.29417768
161	0x3d55657d	0.05209874
162	0xbfe84233	-1.8145202
163	0xbcb53798	-0.022121236
164	0x3daf740a	0.085670546
165	0xbce852bb	-0.028359761
166	0xbe88228b	-0.26588854
167	0xbeb6312a	-0.35584384
168	0xbe1d9a5a	-0.15390912
169	0xbe978923	-0.29596815
170	0x3ebafe6d	0.36522236
171	0xbe628da2	-0.22124341
172	0xc014afb2	-2.3232236
173	0x3e1d8404	0.15382391
174	0x3dfe7e09	0.12426383
175	0xbf049d26	-0.5180229
176	0xbe15c6eb	-0.14626662
177	0xbe2b47dd	-0.16726632
178	0xbe80aa42	-0.25129896
179	0xbf67deea	-0.90574515
180	0xbdc70fca	-0.097198084
181	0xc0404f45	-3.0048382
182	0x3c99bfc1	0.018768193
183	0xbd8923fc	-0.066963166
184	0xbe2c18e0	-0.16806364
185	0x3e3fda3c	0.18735594
186	0xbddc54c3	-0.107583545
187	0xc09e8a83	-4.954408
188	0xbe3fc7d9	-0.1872858
189	0x3d23b7dd	0.039970268
190	0xbd14c151	-0.036317173
191	0xbea2a753	-0.31768283
192	0xbe42fc31	-0.19041516
193	0xbf004b11	-0.5011454
194	0xbe9efe3b	-0.31053337
195	0x3e7a1045	0.24420269
196	0xbede7746	-0.43450373
197	0x3ce7e89f	0.028309165
198	0x3d6714b5	0.056416232
199	0x3d494ce6	0.0491456
200	0xbf67f2f7	-0.9060511
201	0x3c16bf58	0.009200893
202	0x3c570a31	0.013124988
203	0xbec3d929	-0.38251618
204	0xbf823890	-1.0173512
205	0xbf127d1e	-0.57222164
206	0xc0dc3621	-6.8816075
207	0xbe2c1045	-0.16803081
208	0x3d9b98da	0.075975135
209	0xbe7aa5e9	-0.24477352
210	0x3e054813	0.13015775
211	0xbe2891c9	-0.16461863
212	0xbf480b70	-0.7814245
213	0xbf012027	-0.50439686
214	0xbca073fc	-0.019586556
215	0xbe69a76e	-0.22817776
216	0xbca92d61	-0.020651521
217	0x3e001d50	0.12511182
218	0xbf3e92dc	-0.7444284
219	0xbe35b9d7	-0.17746674
220	0x3ed34d4e	0.41269916
221	0xbf7b3803	-0.9813234
222	0x3f4d2286	0.80130804
223	0xbe29a0d6	-0.1656526
224	0xbcf8685f	-0.030323206
225	0xbf8a5fa0	-1.0810432
226	0xbe1aa907	-0.15103541
227	0x3de8c674	0.11365977
228	0xbf346c65	-0.70477897
229	0xbf864393	-1.0489372
230	0xbdae3e3c	-0.08507964
231	0xc120961e	-10.03665
232	0xbee5740d	-0.44815102
233	0xbdcb4c40	-0.09926653
234	0xbd07371f	-0.033011552
235	0xbf4117b5	-0.754268
236	0xbe875c36	-0.2643754
237	0x3faa514a	1.3306057
238	0xbf864747	-1.0490502
239	0xbd584214	-0.052797392
240	0xbeb6e516	-0.35721654
241	0xbdf8ae42	-0.12142612
242	0x3e9cce0b	0.30625948
243	0xbf499058	-0.78735876
244	0xbdbd815b	-0.09253188
245	0x3f0bf59d	0.5467165
246	0xbf94db35	-1.1629397
247	0x3f7d0368	0.9883332
248	0x3df62fcf	0.120208375
249	0x3dee93b9	0.116492696
250	0xbfce7931	-1.6130735
251	0x3dd4c472	0.103890315
252	0xbe1ce281	-0.1532078
253	0xbf14027b	-0.57816285
254	0xbf8fb7c8	-1.122796
255	0xbee0b71c	-0.438897

output.bias f4 [37]
0	0xbed04eb2	-0.4068504
1	0xbdc9ceb5	-0.09853879
2	0x3ee358b4	0.44403613
3	0x3eb4881d	0.35260096
4	0x3dffa317	0.12482279
5	0x3e880c73	0.26571998
6	0xbdb0c243	-0.086308025
7	0xbe02b9a4	-0.12766129
8	0xbef6c660	-0.48198223
9	0xbef67367	-0.4813492
10	0xbec78ef7	-0.3897626
11	0xbeea6ddd	-0.45786944
12	0xbe2c4ea4	-0.16826874
13	0xbe8438f9	-0.25824717
14	0xbeae751f	-0.3407373
15	0xbdc707f1	-0.097183116
16	0xbd5063ff	-0.050876614
17	0xbca388c2	-0.019962672
18	0xbef36b67	-0.4754288
19	0xbe50fa88	-0.2040807
20	0xbe5108fe	-0.20413586
21	0xbe6efea1	-0.2333932
22	0xbe7533d2	-0.23945549
23	0xbd09e7f9	-0.033668492
24	0xbedeec9a	-0.43539888
25	0xbf0e5586	-0.5559925
26	0xbe12431c	-0.14283413
27	0xbf1a06fd	-0.60166913
28	0xbe2cc80d	-0.16873188
29	0xbe0facdc	-0.14030784
30	0xbd015252	-0.031572647
31	0xbde61d04	-0.11236003
32	0x3e633587	0.22188388
33	0x3eca948a	0.3956645
34	0x3ee50b56	0.4473521
35	0x3e1fbfb0	0.15600467
36	0xbddf619a	-0.10907288
