Work with data/trained_model.pt (torch, 217547 bytes, 8 tensors)

input.weight f4 [64, 784]
0.016325641 -0.03370058 -0.006421285 -0.034408808 -0.029128434 -0.010479719 0.011560675 -0.034022678
-0.021449363 0.007989428 0.033767518 -0.02782867 -0.0057697226 -0.02437354 -0.032000452 -0.034585256
-0.02271714 0.001551858 -9.238294e-05 -0.011926992 -0.0007535816 -0.0033250453 0.011610172 0.005203707
0.00052679016 0.016113605 -0.027135106 -0.03233804 0.029001936 -0.00015630042 0.02284891 -0.009991357
0.002493808 -0.015320375 0.0029361548 0.015390045 0.0011266762 -0.006264186 -0.031295437 0.010723104
0.031456944 -0.0082817245 -0.03154616 -0.01970741 0.035047635 -0.028936459 -0.021618826 -0.0152349975
-0.02252269 -0.008085651 0.0020628655 0.03133532 -0.003224475 -0.018750332 0.0014738527 -0.022286626
-0.015646424 0.011803645 -0.024473993 0.024596918 -0.0037100078 -0.03511568 0.030733576 0.023808453
0.0014305342 -0.011604778 0.024660358 -0.028653974 0.022193102 -0.030863604 0.017747397 0.0315976
0.010888179 -0.026387759 -0.011358098 0.018401165 -0.022743307 0.0034661917 0.031685926 -0.014691541
-0.01760296 0.0101904515 0.016573554 -0.019712646 0.018639497 -0.0038408511 0.027390014 -0.028192898
-0.026959537 0.013522157 0.008121927 0.029105362 0.012253453 0.013144829 -0.014290201 -0.032940466
-0.012453418 -0.04884503 -0.029238738 -0.030070266 -0.03287097 -0.013193633 -0.03654351 -0.018606514
-0.03292812 0.017210413 -0.009602587 -0.029702147 -0.0014009629 -0.0052137366 -0.017986001 -0.031224465
0.020667247 0.011223884 -0.0011760354 0.00674099 -0.00031382317 0.005961487 0.0086896345 -0.013749213
-0.032700397 -0.033838626 -0.036371604 -0.012230694 -0.007160563 -0.014768044 0.017341651 -0.041023947
-0.04174233 -0.011698284 -0.03757805 -0.0012747996 0.0058613042 -0.027010618 -0.016649868 0.020757351
0.015491564 0.008825702 0.0042111594 -0.029501922 -0.031811737 -0.021749659 -0.02660565 -0.006367092
0.021219721 0.025168503 -0.022521334 0.009374224 0.00553568 -0.025271265 -0.009786885 -0.061637018
0.0030518332 -0.03037796 -0.017635737 0.030671628 1.5289999e-06 0.032794926 0.019823672 0.036771648
-0.0234579 -0.020445146 0.03636966 -0.04452435 -0.023618717 -0.004023121 0.0010055251 -0.03369351
0.030640991 0.030843172 -0.0014332241 0.031102886 -0.016645767 0.025002547 0.0027601637 -0.031620145
0.007929844 0.0023524384 -0.0036284665 -0.057485834 -0.010869136 0.014767488 0.04694625 0.03430617
0.050018158 0.027166793 0.06322834 0.05602852 -0.0024973971 -0.0043458203 0.0054889526 -0.04376982
-0.017634846 0.031781733 -0.008531856 -0.028467322 0.01728691 -0.007889817 -0.009411057 0.022649575
0.014556007 0.0007133903 0.014495642 0.0067899893 0.0055002794 -0.016659094 -0.026798489 -0.030261837
-0.002263507 0.027261918 0.023583904 0.08170681 0.04496606 0.0071741934 0.005254236 0.0046828277
0.021907527 0.018336065 0.030450257 -0.0017746222 0.0033119672 -0.007041491 0.03368103 0.026888045
0.016643072 0.02106217 -0.025987241 -0.011199156 0.051757205 0.0015883371 0.07597406 0.057578728
0.073886245 0.06039063 0.030057155 0.018861445 0.057104792 0.082712054 0.03428866 0.012103891
0.03161461 0.03833933 0.011256236 0.03309612 0.012214939 0.03047594 0.036532298 0.03003476
-0.04139137 0.019531196 0.034028433 -0.023652585 0.0045331926 -0.025416242 -0.02779933 0.035314977
00000000: 5abd 853c 9f09 0abd a569 d2bb 40f0 0cbd
00000010: c19e eebc 21b3 2bbc fc68 3d3c 5d5b 0bbd
00000020: 93b6 afbc 17e6 023c cf4f 0a3d f3f8 e3bc
00000030: f10f bdbb 05ab c7bc e812 03bd 45a9 0dbd
00000040: 4c19 babc b767 cb3a b7bd c1b8 6e69 43bc
00000050: 018c 45ba 01e9 59bb 9738 3e3c dc83 aa3b
00000060: 4a18 0a3a ae00 843c 714a debc e574 04bd
00000070: 7895 ed3c 93e4 23b9 a32d bb3c cab2 23bc
00000080: 286f 233b 4f02 7bbc 816c 403b 8726 7c3c
00000090: fbac 933a cd43 cdbb a52f 00bd f5af 2f3c
000000a0: ffd8 003d 12b0 07bc 8c36 01bd 6f71 a1bc
000000b0: 1c8e 0f3d 270c edbc f719 b1bc 369c 79bc
000000c0: 8181 b8bc ae79 04bc 2431 073b 7759 003d
000000d0: b751 53bb 4c9a 99bc 4a2e c13a 7192 b6bc
000000e0: ee2c 80bc 1364 413c af7d c8bc 7a7f c93c
000000f0: 9a23 73bb 76d5 0fbd fbc4 fb3c f209 c33c
00000100: c380 bb3a f721 3ebc 8504 ca3c bdbb eabc
00000110: 4fce b53c abd5 fcbc fd62 913c 7c6c 013d
00000120: 5564 323c 242b d8bc 5117 3abc 0abe 963c
00000130: 2c50 babc 0c29 633b 1ac9 013d cab4 70bc
00000140: 1534 90bc daf5 263c 43c5 873c 6a7c a1bc
00000150: dcb1 983c cab6 7bbb 0661 e03c cbf4 e6bc
00000160: 3fda dcbc 0a8c 5d3c d511 053c 5e6e ee3c
00000170: b5c2 483c 695d 573c 7221 6abc 95ec 06bd
00000180: 6c09 4cbc ba11 48bd 1486 efbc eb55 f6bc
00000190: b6a3 06bd 1c2a 58bc a6ae 15bd b06c 98bc
000001a0: a3df 06bd dafc 8c3c 2b54 1dbc eb51 f3bc
000001b0: 84a0 b7ba fed7 aabb 6157 93bc 73ca ffbc
000001c0: 5c4e a93c 62e4 373c 3325 9aba 86e3 dc3b
000001d0: a288 a4b9 9458 c33b f85e 0e3c 6144 61bc
000001e0: daf0 05bd 5f9a 0abd 64fa 14bd 4063 48bc
000001f0: 28a3 eabb abf5 71bc 1410 8e3c ba08 28bd
00000200: 01fa 2abd 29aa 3fbc 71eb 19bd 2d17 a7ba
00000210: 2f10 c03b 5f45 ddbc 4e65 88bc 520b aa3c
00000220: 54d0 7d3c ad99 103c c4fd 893b 04ae f1bc
00000230: 064d 02bd 572c b2bc 18f4 d9bc 0aa3 d0bb
00000240: fbd4 ad3c 2d2e ce3c a97e b8bc 5896 193c
00000250: a664 b53b af05 cfbc 2c59 20bc 1977 7cbd
00000260: 4401 483b 33db f8bc d278 90bc 1143 fb3c
00000270: 0938 cd35 f953 063d 4165 a23c de9d 163d
00000280: c82a c0bc 947c a7bc 5af8 143d 2a5f 36bd
00000290: 0a7c c1bc 63d4 83bb d3cb 833a 3502 0abd
000002a0: d102 fb3c d2aa fc3c 05db bbba 7bcb fe3c
000002b0: b45c 88bc 24d2 cc3c dde3 343b 2084 01bd
000002c0: 2dec 013c 5e2b 1a3b 91cb 6dbb 4476 6bbd
000002d0: 7614 32bc 56f3 713c b64a 403d a084 0c3d
000002e0: d7df 4c3d e58c de3c dc7d 813d 297e 653d
000002f0: 5fab 23bb 6267 8ebb acdc b33b fc47 33bd
00000300: f476 90bc 902d 023d 33c9 0bbc 4d34 e9bc
00000310: 479d 8d3c 4a44 01bc d630 1abc 9a8b b93c
00000320: 527c 6e3c d002 3b3a 217f 6d3c 8f7e de3b
00000330: b03b b43b a778 88bc 8188 dbbc ace7 f7bc
00000340: 5957 14bb 6354 df3c 0833 c13c e655 a73d
00000350: 552e 383d 7f15 eb3b ba2b ac3b 6872 993b
00000360: 6a77 b33c 8435 963c d172 f93c 719a e8ba
00000370: 970d 593b 4fbc e6bb 1ff5 093d 5144 dc3c
00000380: 0d57 883c 928a ac3c 32e3 d4bc aa7c 37bc
00000390: 5dff 533d c02f d03a 4a98 9b3d acd7 6b3d
000003a0: ac51 973d 2a5c 773d 6c3a f63c 5183 9a3c
000003b0: b7e6 693d f064 a93d 4472 0c3d 664f 463c
000003c0: 527e 013d b409 1d3d 136c 383c cc8f 073d
000003d0: 2b21 483c aea8 f93c e4a2 153d 750b f63c
000003e0: ff89 29bd e3ff 9f3c 6661 0b3d 11c3 c1bc
000003f0: 2d8b 943b b935 d0bc 6cbb e3bc 70a6 103d

input.bias f4 [64]
-0.06049131 0.014615717 0.068757035 0.123800166 0.008643002 0.04052055 0.016386252 0.022480702
0.03206504 -0.008719604 0.10393029 0.06268249 -0.009905876 0.0024070786 0.116393544 -0.05146392
-0.03783523 0.019473959 -0.003099542 -0.013324539 0.064926036 0.10233057 0.056915548 -0.058561303
-0.025116488 -0.00042886872 0.022426667 0.056316197 -0.030202314 0.02421198 0.032835074 0.105014
-0.045031864 0.0960028 -0.041653343 -0.04444227 0.082914606 0.024516074 -0.04808009 0.08565772
-0.033647016 -0.0059205815 0.058437485 0.0749596 -0.0058203945 0.008260819 0.0065818257 0.0111031905
0.02655038 -0.025118906 0.0066403328 0.015547815 0.02998853 0.0017357008 -0.012329301 0.06882887
0.06062789 0.07840289 -0.031097723 -0.03707774 0.013024004 0.0033455428 0.061988484 -0.040920634
00000000: bcc5 77bd c376 6f3c 7dd0 8c3d f18a fd3d
00000010: 619b 0d3c e0f8 253d 763c 863c 7329 b83c
00000020: a256 033d acdc 0ebc 67d9 d43d ad5f 803d
00000030: 414c 22bc 14c0 1d3b bd5f ee3d d5cb 52bd
00000040: 1df9 1abd da87 9f3c b021 4bbb 2b4f 5abc
00000050: f1f7 843d b192 d13d 4720 693d fadd 6fbd
00000060: 18c1 cdbc c9d9 e0b9 21b8 b73c d0ab 663d
00000070: d86a f7bc 3458 c63c 127e 063d 9411 d73d
00000080: 5573 38bd 1e9d c43d b29c 2abd 1909 36bd
00000090: 22cf a93d efd5 c83c a1ef 44bd 516d af3d
000000a0: 74d1 09bd 7001 c2bb 255c 6f3d 6b84 993d
000000b0: 02b9 bebb 6358 073c 5bac d73b 28ea 353c
000000c0: 2f80 d93c 2ac6 cdbc 2697 d93b 43bc 7e3c
000000d0: 81aa f53c 7480 e33a d600 4abc 27f6 8c3d
000000e0: f354 783d b291 a03d a7c0 febc d4de 17bd
000000f0: a262 553c e540 5b3b a3e7 7d3d 659c 27bd

fc1.weight f4 [32, 64]
0.07144769 -0.110557675 0.098802805 -0.0124936495 -0.03974828 -0.1407409 0.11584609 0.006788775
0.026441243 -0.12858328 0.037179448 -0.08506267 -0.025024053 -0.11884508 -0.123669386 0.22030093
-0.016812762 0.109624624 -0.03039017 0.055692933 -0.10534437 0.050179664 -0.03506292 0.20391938
0.0092866635 -0.14204073 0.082254946 -0.17044151 0.023233686 0.10785308 -0.18335207 0.1196763
0.08580748 0.015520065 -0.1484952 0.28165117 0.1397001 -0.06318199 -0.055972897 0.02161248
0.15349633 -0.13511987 -0.09367834 -0.058591474 0.18124394 -0.006215529 -0.2580698 -0.12888269
0.1746314 0.082285434 -0.054188043 0.14185171 0.17006107 0.078096986 -0.06098546 -0.01063243
0.041547533 -0.16564879 0.023550298 0.14510141 -0.13939257 0.11023151 -0.18438298 0.21678773
-0.08136841 0.023063982 -0.08236087 0.14077827 0.092785336 0.15646864 -0.14379643 0.08257286
-0.10905011 0.13720813 -0.043779824 0.035414103 -0.036244813 -0.069088235 -0.063309394 -0.03716269
0.08716004 0.1246676 0.08248737 -0.0049608904 -0.018855585 -0.05168294 0.056627672 0.14703625
0.004054618 0.19662854 0.08201523 0.027154537 -0.039079417 -0.1520163 0.027955513 0.11769656
-0.12992802 -0.071396366 0.020449836 0.13804379 0.060465172 -0.05638253 0.17177151 0.09519896
0.12069975 0.08994889 -0.046269286 -0.017564967 0.034604684 0.036968566 -0.08565378 -0.04149852
0.016334852 -0.062849544 0.072878994 -0.05683723 -0.09590224 -0.09327196 -0.017373964 -0.109216124
0.15167473 0.021311523 0.05855138 -0.00026505976 0.054542962 -0.021959623 0.09382946 0.079411745
-0.04904504 0.06518838 0.013209611 0.022531366 -0.049321327 -0.08971016 -0.07694417 0.06887703
0.0307986 0.03572626 0.006510778 0.0038908273 -0.056120086 0.04952938 -0.11737711 -0.03713467
0.07281947 -0.108407766 -0.017724633 -0.051683668 0.039470486 0.009137372 -0.11868841 0.078544766
-0.06906146 0.053456407 -0.10050717 -0.086993724 -0.016572667 -0.06960091 -0.052597027 -0.08167905
0.073648624 0.027134687 0.045340743 0.01978207 -0.11361549 -0.0536988 0.007014678 -0.099946894
-0.003098044 0.005177292 -0.120129175 -0.01647711 -0.0946134 -0.07896991 0.087753825 0.02322569
0.029437302 0.01448768 0.057069324 -0.08452524 -0.023660228 -0.102912515 -0.066509694 0.042216495
0.008262083 0.010620773 -0.113174394 -0.07729262 -0.116010725 0.039241277 0.11440466 0.09433538
0.17831177 0.05517736 0.07276767 -0.07201686 0.04385428 0.015945295 0.035077456 0.08397486
-0.15099096 -0.047900055 0.09239844 0.1672356 0.00038952578 0.06462898 0.1373652 0.07781021
-0.13638715 0.06765002 -0.007998963 -0.02677893 0.13084471 0.20628338 0.10813137 -0.15149
-0.058837377 0.032637395 -0.033583328 -0.017035654 0.104449734 -0.047060825 -0.07092688 -0.033960707
0.092891574 0.16807489 -0.08571655 -0.034204908 0.12885042 -0.048650213 -0.08620049 0.15210994
0.112534545 -0.12498815 0.10676757 -0.06485571 -0.08289991 0.083079666 0.15811095 -0.10784997
-0.06153146 0.080607936 -0.04687439 0.057033394 0.029180968 -0.041351125 0.09135975 0.1481615
0.10666425 0.09649132 -0.05754168 -0.027706707 0.10154737 0.08412983 0.071068205 0.08541492
00000000: 2b53 923d 106c e2bd 2059 ca3d 2ab2 4cbc
00000010: 18cf 22bd 621e 10be b740 ed3d 5f74 de3b
00000020: 4e9b d83c 56ab 03be 7a49 183d 5635 aebd
00000030: 3eff ccbc 0d65 f3bd 6046 fdbd 9196 613e
00000040: ebba 89bc e082 e03d cef4 f8bc 461e 643d
00000050: cabe d7bd 3189 4d3d 239e 0fbd 3ed0 503e
00000060: 1727 183c 2073 11be 4875 a83d 3888 2ebe
00000070: 9254 be3c 13e2 dc3d a5c0 3bbe d918 f53d
00000080: d5bb af3d df47 7e3c 200f 18be 9534 903e
00000090: 8b0d 0f3e 8f65 81bd d643 65bd a80c b13c
000000a0: 242e 1d3e dd5c 0abe 6eda bfbd 9dfd 6fbd
000000b0: 0398 393e a3ab cbbb ba21 84be d3f9 03be
000000c0: 93d2 323e 4485 a83d 48f4 5dbd 9341 113e
000000d0: 7d24 2e3e 50f1 9f3d e4cb 79bd a533 2ebc
000000e0: bf2d 2a3d d69f 29be 8eec c03c 7795 143e
000000f0: edbc 0ebe 0fc1 e13d e4ce 3cbe 9afd 5d3e
00000100: 7ba4 a6bd adf0 bc3c d1ac a8bd 2e28 103e
00000110: 3d06 be3d 5139 203e 5f3f 13be f61b a93d
00000120: aa55 dfbd 4a80 0c3e 7952 33bd 610e 113d
00000130: 7175 14bd 227e 8dbd 5ba8 81bd e837 18bd
00000140: f780 b23d ba51 ff3d 23ef a83d f78e a2bb
00000150: 0777 9abc 7eb1 53bd 6bf2 673d ac90 163e
00000160: 9adc 843b fe58 493e 9af7 a73d 3173 de3c
00000170: bd11 20bd 29aa 1bbe f602 e53c e50a f13d
00000180: da0b 05be 4238 92bd 6a86 a73c 5a5b 0d3e
00000190: 54aa 773d 5ef1 66bd dfe4 2f3e acf7 c23d
000001a0: 6e31 f73d 2037 b83d dd84 3dbd 68e4 8fbc
000001b0: a4bd 0d3d 5a6c 173d 406b afbd 5afa 29bd
000001c0: abd0 853c 43b7 80bd 9541 953d 28ce 68bd
000001d0: 6568 c4bd 5f05 bfbd d853 8ebc b4ac dfbd
000001e0: 9f50 1b3e 8195 ae3c 92d3 6f3d b8f7 8ab9
000001f0: 7168 5f3d abe4 b3bc a929 c03d a0a2 a23d
00000200: 74e3 48bd 7c81 853d 206d 583c b393 b83c
00000210: 2905 4abd f6b9 b7bd e894 9dbd 660f 8d3d
00000220: 584d fc3c b355 123d 5d58 d53b 40fd 7e3b
00000230: 2dde 65bd 52df 4a3d 6963 f0bd 861a 18bd
00000240: 6022 953d e404 debd 4033 91bc 41b2 53bd
00000250: ceab 213d eab4 153c e912 f3bd 14dc a03d
00000260: 1870 8dbd 1bf5 5a3d b4d6 cdbd c429 b2bd
00000270: 67c3 87bc ec8a 8ebd fb6f 57bd 5947 a7bd
00000280: 17d5 963d 9049 de3c 37b7 393d 020e a23c
00000290: 3daf e8bd 46f3 5bbd 62db e53b f5b0 ccbd
000002a0: 8e08 4bbb 46a6 a93b 4906 f6bd 01fb 86bc
000002b0: acc4 c1bd faba a1bd 47b8 b33d cd43 be3c
000002c0: 7f26 f13c bc5d 6d3c 86c1 693d 921b adbd
000002d0: 18d3 c1bc ccc3 d2bd 3c36 88bd 34eb 2c3d
000002e0: b05d 073c c002 2e3c fac7 e7bd 984b 9ebd
000002f0: 0897 edbd 76bb 203d fe4c ea3d e832 c13d
00000300: 5c97 363e a801 623d 3707 953d 937d 93bd
00000310: 8ca0 333d b59f 823c 61ad 0f3d 03fb ab3d
00000320: 609d 1abe d932 44bd 653b bd3d cf3f 2b3e
00000330: 4439 cc39 335c 843d 77a9 0c3e f65a 9f3d
00000340: 13a9 0bbe 188c 8a3d 150e 03bc 7d5f dbbc
00000350: 28fc 053e f33b 533e fb73 dd3d 3220 1bbe
00000360: 76ff 70bd caae 053d ac8e 09bd 5b8e 8bbc
00000370: bee9 d53d dac2 40bd 1d42 91bd 621a 0bbd
00000380: f03d be3d d31b 2c3e 298c afbd 721a 0cbd
00000390: 5df1 033e 7245 47bd e289 b0bd b5c2 1b3e
000003a0: 8378 e63d caf9 ffbd f5a8 da3d 12d3 84bd
000003b0: 6ec7 a9bd ac25 aa3d d6e7 213e 72e0 dcbd
000003c0: 6a08 7cbd c615 a53d 5cff 3fbd d99b 693d
000003d0: ed0c ef3c cc5f 29bd d21a bb3d a6b7 173e
000003e0: c972 da3d 3e9d c53d d3b0 6bbd 2df9 e2bc
000003f0: 11f8 cf3d 434c ac3d 358c 913d 04ee ae3d

fc1.bias f4 [32]
-0.012089274 -0.07979606 -0.06009692 0.123061776 0.21043214 0.16902557 0.03567401 -0.017009148
0.0071533746 0.032955434 0.1387866 -0.040879924 -0.08640422 -0.10015575 0.042386 -0.04011358
-0.0025142021 -0.002452361 0.074254096 0.096999064 0.108206406 0.2029222 0.14994103 0.25591448
0.16424291 0.1515808 -0.090995684 -0.06671034 -0.10247237 0.18037683 0.09967747 0.13600518
00000000: 1712 46bc 1e6c a3bd 3028 76bd d007 fc3d
00000010: 867b 573e 0a15 2d3e e91e 123d c556 8bbc
00000020: db66 ea3b 47fc 063d 131e 0e3e b571 27bd
00000030: b2f4 b0bd 751e cdbd f19c 2d3d 234e 24bd
00000040: 50c5 24bb cab7 20bb 8812 983d 72a7 c63d
00000050: 529b dd3d d6ca 4f3e 248a 193e 3907 833e
00000060: 4b2f 283e ff37 1b3e f25b babd 6e9f 88bd
00000070: 09dd d1bd b4b4 383e b423 cc3d f144 0b3e

fc2.weight f4 [32, 32]
0.06886154 0.06008917 0.11955071 -0.10317818 -0.10261151 -0.113648236 0.08127007 -0.11562323
0.14929047 -0.05353983 -0.056334283 0.04197262 -0.15448554 -0.10533348 -0.0521144 0.005705221
-0.095286824 0.16229002 0.0779731 -0.07924571 -0.16069387 -0.003599345 -0.16651076 -0.053667095
0.1387802 0.055683047 0.07519335 0.0795873 -0.018491529 -0.09585972 -0.14029385 -0.11392033
-0.025866773 -0.04972738 0.032643955 -0.11537476 -0.15781954 -0.15190643 -0.049570404 -0.043967303
0.15453714 0.100928 -0.13197426 -0.09501616 -0.121186495 0.08292005 0.14610742 0.08469351
-0.1607438 -0.15051803 0.052466135 0.015478655 0.088551044 -0.18252496 -0.16804953 -0.03225048
-0.15566887 0.094702914 0.15748645 0.141972 -0.110115595 0.0836855 0.08163859 -0.010796258
-0.18257251 0.13237476 0.10957549 0.091888376 -0.0011295119 0.04214949 0.17149943 0.19972828
-0.21417311 -0.0775514 0.18241982 0.37033412 0.09405734 0.011332582 -0.14175604 -0.02921917
0.12135284 -0.00487805 0.56602436 0.32089496 -0.44498396 0.3271875 -0.40054548 -0.12949914
0.09543507 0.2572747 0.055971157 0.15238734 0.16153994 -0.1003805 -0.23210846 -0.28516
0.22608949 -0.05894367 0.09029338 0.009989771 0.03351958 0.15574211 -0.07131991 0.07733136
0.10935938 0.26560596 -0.05303237 0.21859194 0.08781467 0.14722814 0.18252964 0.0039081546
-0.24489969 0.123412095 0.283719 0.022755032 -0.017585482 0.23023936 -0.25284868 0.054249194
-0.34028685 -0.20909579 -0.11868418 0.045034766 -0.08848421 -0.13546048 -0.13639133 -0.2180077
0.114595056 0.08192193 -0.064420186 -0.12193374 -0.08440744 -0.07590447 -0.13541305 0.056478336
-0.13726623 0.030908095 -0.0537016 -0.28149676 -0.04847493 -0.06771753 0.19194686 0.08231995
-0.0023919502 -0.22701328 -0.08396977 0.11295171 0.1861392 0.28219414 0.06860941 0.12808478
0.263367 -0.013974349 0.15553477 0.040267747 -0.005862905 -0.31692156 0.19283728 0.22382091
0.20950772 -0.248873 0.16154458 0.012412002 -0.116012506 -0.07344799 0.048012026 -0.13758609
0.2301462 0.18492016 -0.22562471 -0.17644535 -0.020199718 -0.031252723 0.4500565 0.44382504
-0.093229435 0.16894193 -0.060560126 0.16063024 0.028603345 0.2568062 0.3347146 -0.13238761
-0.06193631 -0.27520174 -0.07618053 0.12963517 -0.14590293 -0.0033072606 0.43252742 -0.00040849374
-0.13996342 0.018305924 -0.10514136 0.17920303 0.19504376 -0.10690231 0.036443643 0.2745508
0.4230878 0.2994711 -0.21602432 0.32103506 -0.22595842 -0.05441823 0.2889917 0.67727244
-0.420637 0.27726218 -0.11696169 0.07029023 0.21715234 0.41832557 -0.020929687 0.31155267
-0.1215285 -0.33235037 0.060713965 -0.03496168 -0.03535644 0.015240199 -0.5739001 -0.1339464
0.20515311 0.06617886 0.06873124 -0.21911861 0.11125994 0.20848823 -0.01652199 0.017483808
0.39206257 -0.09370751 0.002691616 0.42081782 0.15900561 0.21989642 0.059812058 -0.09649949
-0.16649148 -0.04819861 -0.023474474 -0.04300014 0.33670685 0.117733575 0.24004209 0.30882353
-0.0778069 -0.093234956 -0.1255697 0.12706861 -0.06633172 0.082766786 -0.27177435 0.31757864
00000000: 4707 8d3d 1020 763d 01d7 f43d 154f d3bd
00000010: fc25 d2bd 68c0 e8bd ec70 a63d dfcb ecbd
00000020: 9adf 183e 954c 5bbd c7be 66bd 7beb 2b3d
00000030: 7531 1ebe 14b9 d7bd e975 55bd ddf2 ba3b
00000040: bd25 c3bd 5b2f 263e 5cb0 9f3d 934b a2bd
00000050: ef8c 24be fde2 6bbb cc81 2abe 07d2 5bbd
00000060: 661c 0e3e e813 643d f9fe 993d abfe a23d
00000070: 8c7b 97bc 1a52 c4bd 31a9 0fbe 104f e9bd
00000080: 8ee6 d3bc f0ae 4bbd abb5 053d 9a49 ecbd
00000090: 729b 21be 5c8d 1bbe 560a 4bbd 0f17 34bd
000000a0: fc3e 1e3e 57b3 ce3d 4324 07be d597 c2bd
000000b0: a030 f8bd fdd1 a93d 2f9d 153e ca73 ad3d
000000c0: 069a 24be 6621 1abe bbe6 563d 2f9a 7d3c
000000d0: 405a b53d d3e7 3abe 2d15 2cbe 1419 04bd
000000e0: a967 1fbe 9af3 c13d 2144 213e 1c61 113e
000000f0: 4984 e1bd 4e63 ab3d 2232 a73d cae2 30bc
00000100: 4af4 3abe 408d 073e 1d69 e03d f92f bc3d
00000110: 210c 94ba f2a4 2c3d 8c9d 2f3e 9285 4c3e
00000120: 3250 5bbe 45d3 9ebd 43cc 3a3e 6f9c bd3e
00000130: 22a1 c03d 4bac 393c 7f28 11be 0a5d efbc
00000140: d687 f83d 0dd8 9fbb f9e6 103f 584c a43e
00000150: f0d4 e3be 1f85 a73e 4c14 cdbe 6c9b 04be
00000160: 7673 c33d 82b9 833e 0342 653d 6d0b 1c3e
00000170: ba6a 253e 4b94 cdbd d7ad 6dbe 7e00 92be
00000180: 0184 673e eb6e 71bd bceb b83d 23ac 233c
00000190: d44b 093d dc7a 1f3e 2c10 92bd e75f 9e3d
000001a0: d0f7 df3d 81fd 873e 7838 59bd 91d6 5f3e
000001b0: 2dd8 b33d f9c2 163e 0de9 3a3e fa0f 803b
000001c0: fcc6 7abe 7bbf fc3d 9e43 913e c368 ba3c
000001d0: 6e0f 90bc dec3 6b3e 6275 81be 6734 5e3d
000001e0: 143a aebe 351d 56be b110 f3bd 6076 383d
000001f0: 3637 b5bd 27b6 0abe 2baa 0bbe 693d 5fbe
00000200: d0b0 ea3d afc6 a73d bbee 83bd 66b8 f9bd
00000210: cfdd acbd ce73 9bbd b8a9 0abe d455 673d
00000220: 858f 0cbe f932 fd3c 35f6 5bbd 5820 90be
00000230: a68d 46bd 7daf 8abd b88d 443e 5d97 a83d
00000240: 44c2 1cbb 2b76 68be 58f8 abbd 3a53 e73d
00000250: 469b 3e3e c07b 903e 1783 8c3d a828 033e
00000260: 0ad8 863e abf4 64bc 8244 1f3e cbef 243d
00000270: 9d1d c0bb 8b43 a2be 2377 453e 4f31 653e
00000280: 3189 563e 90d8 7ebe f16b 253e b65b 4b3c
00000290: f797 edbd e66b 96bd 42a8 443d 5ee3 0cbe
000002a0: 72ab 6b3e b65b 3d3e 2a0a 67be 17ae 34be
000002b0: e179 a5bc db02 00bd ce6d e63e 093d e33e
000002c0: 13ef bebd 1dff 2c3e e50d 78bd 417c 243e
000002d0: 9051 ea3c 1a7c 833e b65f ab3e 9e90 07be
000002e0: eeb0 7dbd 3ee7 8cbe 8a04 9cbd 15bf 043e
000002f0: 9467 15be a0be 58bb 3c74 dd3e 1a2b d6b9
00000300: 9252 0fbe 4ef6 953c 5a54 d7bd 0081 373e
00000310: 8db9 473e 99ef dabd ee45 153d ec91 8c3e
00000320: f79e d83e 4754 993e 7b35 5dbe b55e a43e
00000330: a561 67be a6e5 5ebd b8f6 933e ba61 2d3f
00000340: bc5d d7be 4ff5 8d3e 9c89 efbd 53f4 8f3d
00000350: 2f5d 5e3e c52e d63e bc74 abbc d583 9f3e
00000360: efe3 f8bd d429 aabe 35af 783d fb33 0fbd
00000370: ead1 10bd 07b2 793c 1eeb 12bf 3f29 09be
00000380: a813 523e c888 873d f7c2 8c3d a160 60be
00000390: 40dc e33d f07d 553e 2059 87bc 343a 8f3c
000003a0: 6dbc c83e b9e9 bfbd d365 303b 6f75 d73e
000003b0: 5ed2 223e 872c 613e 7dfd 743d 86a1 c5bd
000003c0: be7c 2abe e86b 45bd 8a4d c0bc ea20 30bd
000003d0: d764 ac3e 4d1e f13d 98cd 753e 1e1e 9e3e
000003e0: 3959 9fbd f8f1 bebd 5895 00be 461e 023e
000003f0: edd8 87bd a281 a93d 0226 8bbe ab99 a23e

fc2.bias f4 [32]
-0.04072015 -0.14297727 0.20610677 0.09968629 0.20683518 0.020386005 0.16792387 -0.24716747
-0.08031444 0.14822812 0.20465697 -0.11735497 0.13126174 0.21735246 0.09739617 -0.08747901
-0.013350365 0.20175426 0.026320538 -0.10640162 -0.023170056 0.18603277 -0.17353155 0.11132901
0.21962358 0.09330457 -0.16924284 0.1257748 -0.29511365 0.07467361 -0.10831208 0.15160412
00000000: 2cca 26bd a268 12be a70d 533e 5328 cc3d
00000010: 9acc 533e 8d00 a73c 3cf4 2b3e 7819 7dbe
00000020: e67b a4bd 1dc9 173e 9991 513e cd57 f0bd
00000030: 7a69 063e a591 5e3e a577 c73d 3228 b3bd
00000040: 7dbb 5abc ab98 4e3e 2b9e d73c 18e9 d9bd
00000050: 21cf bdbc 607f 3e3e 41b2 31be 7700 e43d
00000060: 01e5 603e 7716 bf3d ff4d 2dbe 1ccb 003e
00000070: 2319 97be 7aee 983d b9d2 ddbd 1c3e 1b3e

output.weight f4 [10, 32]
-0.13681082 0.03689733 0.023810055 -0.05261485 0.48836306 0.6443489 0.061506934 -0.19056441
-0.09433973 0.13904297 -0.08523693 0.41305596 -0.78210485 -0.34182334 0.5186507 -0.005918094
0.54226226 -0.35807756 0.194622 -0.17143224 -0.11969361 0.15802878 0.30139646 -0.39113218
-0.18970318 0.030359792 0.1485712 -0.037683014 -0.023197873 0.09717406 -0.16271983 -0.35535353
-0.13020323 0.1401335 -0.23275992 0.054473266 -0.06720038 -0.28201053 -0.35303444 0.06723402
0.15114488 0.4887798 0.3168314 0.08707249 0.83552545 0.34045509 -0.073109314 -0.29594463
-0.59362537 0.056220043 -0.024481375 -0.07595453 -0.04099935 0.08010866 -0.17696492 -0.4535978
-0.06843085 -0.113339804 -0.12619777 0.3835676 0.017007649 0.059429675 0.13521944 0.30436763
0.049865507 0.05685285 0.31484917 -0.2055353 -0.08701367 0.18303601 -0.22918978 -0.44743666
-0.09674916 -0.08614218 -0.1321751 -0.03557001 -0.08690994 -0.38959467 0.52111787 -0.19983765
0.24757373 0.06160895 -0.38508004 0.06636915 0.02471881 0.59915894 -0.22352839 -0.24779654
-0.30163473 -0.14136456 -0.029221185 0.69308144 0.3715925 0.042958777 -0.050905626 0.5265573
0.040812455 -0.11019428 -0.10644101 -0.3888931 0.09806108 -0.13880546 -0.8512122 0.21938305
-0.14262925 -0.29571044 -0.38622445 -0.008408844 0.43598083 0.16840804 0.003484107 0.31325942
0.110739544 -0.10669514 0.27301225 0.05305223 0.33321282 0.22517018 0.04134408 -0.18955912
0.38312304 -0.14858325 -0.03742046 -0.050582606 0.46459126 0.4025498 0.15254225 0.073805176
0.13890035 0.10893097 0.456257 0.40408522 -0.08126428 -0.31103387 0.5895789 0.3762736
0.11686479 0.3516062 -0.14670102 0.11987445 0.055900507 0.22080834 -0.5303489 0.23834814
-0.4609784 0.29767945 -0.19327268 -0.110759415 -0.018735886 -0.392756 0.0072223837 0.177374
-0.56361556 -0.11642173 0.06534865 -0.26953605 -0.50960207 -0.19214824 0.12261588 0.33996567
-0.1587572 0.1474862 -0.44789273 -0.07013962 0.2535668 0.28222772 0.3065264 0.07889096
0.0034497571 -0.001943381 -0.23037618 -0.35551634 0.15135609 0.42068404 -0.15940143 0.3034149
0.4667573 0.038442526 0.38143656 0.033121318 0.057673145 0.45306745 -0.13923739 0.13895753
0.2127337 0.15281326 -0.17545941 -0.39834386 -0.60652655 -0.20185299 0.09755092 -0.39658543
0.04278384 -0.09951875 -0.42746687 -0.11674697 0.16009878 0.13160464 0.70896995 0.17686525
0.013814968 0.04459792 0.25596836 0.12880406 -0.25214055 -0.34572455 0.5524383 0.16798209
-0.3393954 0.5479756 -0.06721993 -0.09873947 0.09655415 -0.22385919 -0.19455437 -0.7088467
-0.45898274 -0.035662647 0.054812457 -0.11647822 -0.41863233 0.114143185 -0.17396632 0.2912293
0.13768381 0.15504895 0.59077764 0.20587169 0.16062318 -0.3230273 -0.4123425 -0.58155966
-0.08192873 0.13435648 0.29436174 0.15209343 -0.13972868 0.1695625 -0.2820577 -0.27024835
0.11555744 -0.6991217 -0.17061199 0.07854105 0.012936962 0.20054683 0.22523005 0.8119045
0.48522356 0.13965598 0.20151436 0.5914641 -0.19627152 -0.48882705 0.13011548 0.2205136
00000000: 2318 0cbe a821 173d 4e0d c33c ab82 57bd
00000010: b90a fa3e 0df4 243f b2ee 7b3d 5123 43be
00000020: 3035 c1bd 4861 0e3e b390 aebd 127c d33e
00000030: 0638 48bf 7803 afbe 4bc6 043f 92ec c1bb
00000040: b3d1 0a3f f155 b7be fd4a 473e ef8b 2fbe
00000050: ec21 f5bd 4cd2 213e a350 9a3e 7a42 c8be
00000060: 8d41 42be 19b5 f83c 0c23 183e 8159 1abd
00000070: 7709 bebc 3203 c73d 07a0 26be e6f0 b5be
00000080: ff53 05be 287f 0f3e 9e58 6ebe 5c1f 5f3d
00000090: 5aa0 89bd af63 90be eec0 b4be fdb1 893d
000000a0: b9c5 1a3e 5941 fa3e ba37 a23e 1053 b23d
000000b0: ffe4 553f 2150 ae3e 56ba 95bd 0e86 97be
000000c0: d5f7 17bf fd46 663d 2a8d c8bc 0c8e 9bbd
000000d0: efee 27bd 0210 a43d 4b36 35be f93d e8be
000000e0: 7925 8cbd b31e e8bd fd39 01be f962 c43e
000000f0: a053 8b3c 886c 733d f776 0a3e 13d6 9b3e
00000100: c63f 4c3d 89de 683d e933 a13e d877 52be
00000110: 3934 b2bd cb6d 3b3e bab0 6abe 6b16 e5be
00000120: 6c24 c6bd 506b b0bd e958 07be dcb1 11bd
00000130: d7fd b1bd f478 c7be fb67 053f 3ea2 4cbe
00000140: f883 7d3e ab59 7c3d 3629 c5be 8dec 873d
00000150: 1a7f ca3c 7b62 193f a0e4 64be 60be 7dbe
00000160: de6f 9abe dfc1 10be 4461 efbc c96d 313f
00000170: 5f41 be3e 8bf5 2f3d 6b82 50bd 76cc 063f
00000180: f62a 273d 8aad e1bd bffd d9bd ff1c c7be
00000190: 3fd4 c83d 0523 0ebe 0be9 59bf f3a5 603e
000001a0: 670d 12be 5c67 97be 36bf c5be 3fc5 09bc
000001b0: e138 df3e 2873 2c3e 9e55 643b 8a63 a03e
000001c0: 6acb e23d fb82 dabd 43c8 8b3e 4c4d 593d
000001d0: df9a aa3e 0393 663e 6958 293d c91b 42be
000001e0: b428 c43e 3526 18be 3246 19bd b52f 4fbd
000001f0: e8de ed3e 021b ce3e 0934 1c3e 2b27 973d
00000200: e53b 0e3e 3317 df3d 849a e93e 42e4 ce3e
00000210: e36d a6bd d53f 9fbe a5ee 163f efa6 c03e
00000220: cf56 ef3d ba05 b43e cb38 16be bc80 f53d
00000230: eef7 643d 951b 623e f2c4 07bf 8911 743e
00000240: 5c05 ecbe 7169 983e 46e9 45be d5d5 e2bd
00000250: 007c 99bc 5017 c9be bfa9 ec3b 88a1 353e
00000260: 1c49 10bf 846e eebd 83d5 853d a100 8abe
00000270: 4875 02bf 82c2 44be 091e fb3d fb0f ae3e
00000280: 3f91 22be 9f06 173e 3252 e5be 5ca5 8fbd
00000290: 82d3 813e 2780 903e 07f1 9c3e 9591 a13d
000002a0: 5215 623b 0cb9 feba bce7 6bbe 3d06 b6be
000002b0: 17fd 1a3e e663 d73e 213a 23be 3359 9b3e
000002c0: d0fa ee3e e975 1d3d a74b c33e 38aa 073d
000002d0: ad3a 6c3d 75f8 e73e 3f94 0ebe e24a 0e3e
000002e0: ddd6 593e 147b 1c3e a2ab 33be baf3 cbbe
000002f0: 5345 1bbf 8db2 4ebe c7c8 c73d 3f0d cbbe
00000300: 1c3e 2f3d 7dd0 cbbd f0dc dabe 0919 efbd
00000310: eff0 233e 5ec3 063e 0e7f 353f 2a1c 353e
00000320: 2d58 623c 4fac 363d 490e 833e 36e5 033e
00000330: 9118 81be cf02 b1be 996c 0d3f 7f03 2c3e
00000340: 3cc5 adbe 2148 0c3f 9aaa 89bd eb37 cabd
00000350: 2fbe c53d 583b 65be 4339 47be fa76 35bf
00000360: c9ff eabe ff12 12bd 0783 603d 228c eebd
00000370: fa56 d6be e7c3 e93d 3a24 32be 021c 953e
00000380: fcfc 0c3e 27c5 1e3e 343d 173f 07d0 523e
00000390: 677a 243e d663 a5be 8e1e d3be 18e1 14bf
000003a0: 40ca a7bd bf94 093e 95b6 963e 61be 1b3e
000003b0: 0915 0fbe cba1 2d3e de69 90be fe5d 8abe
000003c0: 61a9 ec3d a4f9 32bf e9b4 2ebe 21da a03d
000003d0: 8df5 533c 265c 4d3e b5a2 663e f9d8 4f3f
000003e0: 396f f83e fa01 0f3e c859 4e3e 316a 173f
000003f0: 67fb 48be 8a47 fabe fe3c 053e 51ce 613e

output.bias f4 [10]
0.10228668 0.16371648 0.0982301 -0.041790053 -0.153226 0.123872735 -0.08408059 0.0811372
-0.33871758 -0.15004982
00000000: ae7b d13d 4ba5 273e dd2c c93d 0c2c 2bbd
00000010: 47e7 1cbe fdb0 fd3d 7232 acbd 432b a63d
00000020: 646c adbe a9a6 19be
